…
BeatGANsE2EConfig(image_size=256, in_channels=1, model_channels=128, out_hid_channels=512, out_channels=512, embed_channels=512, num_res_blocks=2, attention_resolutions=(16,), dropout=0.1, channel_mult=(1, 1, 2, 2, 4, 4, 4), use_time_condition=False, conv_resample=True, dims=2, use_checkpoint=False, attn_checkpoint=False, num_heads=1, num_head_channels=-1, num_heads_upsample=-1, resblock_updown=True, use_new_attention_order=False, pool='adaptivenonzero', resnet_two_cond=False, resnet_use_zero_module=False, resnet_cond_channels=None)
BEATS_GAN_E2E_CONF
BeatGANsAutoencModel(
  (time_embed): TimeStyleSeperateEmbed(
    (time_embed): Sequential(
      (0): Linear(in_features=128, out_features=512, bias=True)
      (1): SiLU()
      (2): Linear(in_features=512, out_features=512, bias=True)
    )
    (style): Identity()
  )
  (input_blocks): ModuleList(
    (0): TimestepEmbedSequential(
      (0): Conv2d(1, 128, kernel_size=(3, 3), stride=(1, 1), padding=(1, 1))
    )
    (1): TimestepEmbedSequential(
      (0): ResBlock(
        (in_layers): Sequential(
          (0): GroupNorm32(32, 128, eps=1e-05, affine=True)
          (1): SiLU()
          (2): Conv2d(128, 128, kernel_size=(3, 3), stride=(1, 1), padding=(1, 1))
        )
        (h_upd): Identity()
        (x_upd): Identity()
        (emb_layers): Sequential(
          (0): SiLU()
          (1): Linear(in_features=512, out_features=256, bias=True)
        )
        (cond_emb_layers): Sequential(
          (0): SiLU()
          (1): Linear(in_features=512, out_features=128, bias=True)
        )
        (out_layers): Sequential(
          (0): GroupNorm32(32, 128, eps=1e-05, affine=True)
          (1): SiLU()
          (2): Dropout(p=0.1, inplace=False)
          (3): Conv2d(128, 128, kernel_size=(3, 3), stride=(1, 1), padding=(1, 1))
        )
        (skip_connection): Identity()
      )
    )
    (2): TimestepEmbedSequential(
      (0): ResBlock(
        (in_layers): Sequential(
          (0): GroupNorm32(32, 128, eps=1e-05, affine=True)
          (1): SiLU()
          (2): Conv2d(128, 128, kernel_size=(3, 3), stride=(1, 1), padding=(1, 1))
        )
        (h_upd): Identity()
        (x_upd): Identity()
        (emb_layers): Sequential(
          (0): SiLU()
          (1): Linear(in_features=512, out_features=256, bias=True)
        )
        (cond_emb_layers): Sequential(
          (0): SiLU()
          (1): Linear(in_features=512, out_features=128, bias=True)
        )
        (out_layers): Sequential(
          (0): GroupNorm32(32, 128, eps=1e-05, affine=True)
          (1): SiLU()
          (2): Dropout(p=0.1, inplace=False)
          (3): Conv2d(128, 128, kernel_size=(3, 3), stride=(1, 1), padding=(1, 1))
        )
        (skip_connection): Identity()
      )
    )
    (3): TimestepEmbedSequential(
      (0): ResBlock(
        (in_layers): Sequential(
          (0): GroupNorm32(32, 128, eps=1e-05, affine=True)
          (1): SiLU()
          (2): Conv2d(128, 128, kernel_size=(3, 3), stride=(1, 1), padding=(1, 1))
        )
        (h_upd): Downsample(
          (op): AvgPool2d(kernel_size=2, stride=2, padding=0)
        )
        (x_upd): Downsample(
          (op): AvgPool2d(kernel_size=2, stride=2, padding=0)
        )
        (emb_layers): Sequential(
          (0): SiLU()
          (1): Linear(in_features=512, out_features=256, bias=True)
        )
        (cond_emb_layers): Sequential(
          (0): SiLU()
          (1): Linear(in_features=512, out_features=128, bias=True)
        )
        (out_layers): Sequential(
          (0): GroupNorm32(32, 128, eps=1e-05, affine=True)
          (1): SiLU()
          (2): Dropout(p=0.1, inplace=False)
          (3): Conv2d(128, 128, kernel_size=(3, 3), stride=(1, 1), padding=(1, 1))
        )
        (skip_connection): Identity()
      )
    )
    (4): TimestepEmbedSequential(
      (0): ResBlock(
        (in_layers): Sequential(
          (0): GroupNorm32(32, 128, eps=1e-05, affine=True)
          (1): SiLU()
          (2): Conv2d(128, 128, kernel_size=(3, 3), stride=(1, 1), padding=(1, 1))
        )
        (h_upd): Identity()
        (x_upd): Identity()
        (emb_layers): Sequential(
          (0): SiLU()
          (1): Linear(in_features=512, out_features=256, bias=True)
        )
        (cond_emb_layers): Sequential(
          (0): SiLU()
          (1): Linear(in_features=512, out_features=128, bias=True)
        )
        (out_layers): Sequential(
          (0): GroupNorm32(32, 128, eps=1e-05, affine=True)
          (1): SiLU()
          (2): Dropout(p=0.1, inplace=False)
          (3): Conv2d(128, 128, kernel_size=(3, 3), stride=(1, 1), padding=(1, 1))
        )
        (skip_connection): Identity()
      )
    )
    (5): TimestepEmbedSequential(
      (0): ResBlock(
        (in_layers): Sequential(
          (0): GroupNorm32(32, 128, eps=1e-05, affine=True)
          (1): SiLU()
          (2): Conv2d(128, 128, kernel_size=(3, 3), stride=(1, 1), padding=(1, 1))
        )
        (h_upd): Identity()
        (x_upd): Identity()
        (emb_layers): Sequential(
          (0): SiLU()
          (1): Linear(in_features=512, out_features=256, bias=True)
        )
        (cond_emb_layers): Sequential(
          (0): SiLU()
          (1): Linear(in_features=512, out_features=128, bias=True)
        )
        (out_layers): Sequential(
          (0): GroupNorm32(32, 128, eps=1e-05, affine=True)
          (1): SiLU()
          (2): Dropout(p=0.1, inplace=False)
          (3): Conv2d(128, 128, kernel_size=(3, 3), stride=(1, 1), padding=(1, 1))
        )
        (skip_connection): Identity()
      )
    )
    (6): TimestepEmbedSequential(
      (0): ResBlock(
        (in_layers): Sequential(
          (0): GroupNorm32(32, 128, eps=1e-05, affine=True)
          (1): SiLU()
          (2): Conv2d(128, 128, kernel_size=(3, 3), stride=(1, 1), padding=(1, 1))
        )
        (h_upd): Downsample(
          (op): AvgPool2d(kernel_size=2, stride=2, padding=0)
        )
        (x_upd): Downsample(
          (op): AvgPool2d(kernel_size=2, stride=2, padding=0)
        )
        (emb_layers): Sequential(
          (0): SiLU()
          (1): Linear(in_features=512, out_features=256, bias=True)
        )
        (cond_emb_layers): Sequential(
          (0): SiLU()
          (1): Linear(in_features=512, out_features=128, bias=True)
        )
        (out_layers): Sequential(
          (0): GroupNorm32(32, 128, eps=1e-05, affine=True)
          (1): SiLU()
          (2): Dropout(p=0.1, inplace=False)
          (3): Conv2d(128, 128, kernel_size=(3, 3), stride=(1, 1), padding=(1, 1))
        )
        (skip_connection): Identity()
      )
    )
    (7): TimestepEmbedSequential(
      (0): ResBlock(
        (in_layers): Sequential(
          (0): GroupNorm32(32, 128, eps=1e-05, affine=True)
          (1): SiLU()
          (2): Conv2d(128, 256, kernel_size=(3, 3), stride=(1, 1), padding=(1, 1))
        )
        (h_upd): Identity()
        (x_upd): Identity()
        (emb_layers): Sequential(
          (0): SiLU()
          (1): Linear(in_features=512, out_features=512, bias=True)
        )
        (cond_emb_layers): Sequential(
          (0): SiLU()
          (1): Linear(in_features=512, out_features=256, bias=True)
        )
        (out_layers): Sequential(
          (0): GroupNorm32(32, 256, eps=1e-05, affine=True)
          (1): SiLU()
          (2): Dropout(p=0.1, inplace=False)
          (3): Conv2d(256, 256, kernel_size=(3, 3), stride=(1, 1), padding=(1, 1))
        )
        (skip_connection): Conv2d(128, 256, kernel_size=(1, 1), stride=(1, 1))
      )
    )
    (8): TimestepEmbedSequential(
      (0): ResBlock(
        (in_layers): Sequential(
          (0): GroupNorm32(32, 256, eps=1e-05, affine=True)
          (1): SiLU()
          (2): Conv2d(256, 256, kernel_size=(3, 3), stride=(1, 1), padding=(1, 1))
        )
        (h_upd): Identity()
        (x_upd): Identity()
        (emb_layers): Sequential(
          (0): SiLU()
          (1): Linear(in_features=512, out_features=512, bias=True)
        )
        (cond_emb_layers): Sequential(
          (0): SiLU()
          (1): Linear(in_features=512, out_features=256, bias=True)
        )
        (out_layers): Sequential(
          (0): GroupNorm32(32, 256, eps=1e-05, affine=True)
          (1): SiLU()
          (2): Dropout(p=0.1, inplace=False)
          (3): Conv2d(256, 256, kernel_size=(3, 3), stride=(1, 1), padding=(1, 1))
        )
        (skip_connection): Identity()
      )
    )
    (9): TimestepEmbedSequential(
      (0): ResBlock(
        (in_layers): Sequential(
          (0): GroupNorm32(32, 256, eps=1e-05, affine=True)
          (1): SiLU()
          (2): Conv2d(256, 256, kernel_size=(3, 3), stride=(1, 1), padding=(1, 1))
        )
        (h_upd): Downsample(
          (op): AvgPool2d(kernel_size=2, stride=2, padding=0)
        )
        (x_upd): Downsample(
          (op): AvgPool2d(kernel_size=2, stride=2, padding=0)
        )
        (emb_layers): Sequential(
          (0): SiLU()
          (1): Linear(in_features=512, out_features=512, bias=True)
        )
        (cond_emb_layers): Sequential(
          (0): SiLU()
          (1): Linear(in_features=512, out_features=256, bias=True)
        )
        (out_layers): Sequential(
          (0): GroupNorm32(32, 256, eps=1e-05, affine=True)
          (1): SiLU()
          (2): Dropout(p=0.1, inplace=False)
          (3): Conv2d(256, 256, kernel_size=(3, 3), stride=(1, 1), padding=(1, 1))
        )
        (skip_connection): Identity()
      )
    )
    (10): TimestepEmbedSequential(
      (0): ResBlock(
        (in_layers): Sequential(
          (0): GroupNorm32(32, 256, eps=1e-05, affine=True)
          (1): SiLU()
          (2): Conv2d(256, 256, kernel_size=(3, 3), stride=(1, 1), padding=(1, 1))
        )
        (h_upd): Identity()
        (x_upd): Identity()
        (emb_layers): Sequential(
          (0): SiLU()
          (1): Linear(in_features=512, out_features=512, bias=True)
        )
        (cond_emb_layers): Sequential(
          (0): SiLU()
          (1): Linear(in_features=512, out_features=256, bias=True)
        )
        (out_layers): Sequential(
          (0): GroupNorm32(32, 256, eps=1e-05, affine=True)
          (1): SiLU()
          (2): Dropout(p=0.1, inplace=False)
          (3): Conv2d(256, 256, kernel_size=(3, 3), stride=(1, 1), padding=(1, 1))
        )
        (skip_connection): Identity()
      )
    )
    (11): TimestepEmbedSequential(
      (0): ResBlock(
        (in_layers): Sequential(
          (0): GroupNorm32(32, 256, eps=1e-05, affine=True)
          (1): SiLU()
          (2): Conv2d(256, 256, kernel_size=(3, 3), stride=(1, 1), padding=(1, 1))
        )
        (h_upd): Identity()
        (x_upd): Identity()
        (emb_layers): Sequential(
          (0): SiLU()
          (1): Linear(in_features=512, out_features=512, bias=True)
        )
        (cond_emb_layers): Sequential(
          (0): SiLU()
          (1): Linear(in_features=512, out_features=256, bias=True)
        )
        (out_layers): Sequential(
          (0): GroupNorm32(32, 256, eps=1e-05, affine=True)
          (1): SiLU()
          (2): Dropout(p=0.1, inplace=False)
          (3): Conv2d(256, 256, kernel_size=(3, 3), stride=(1, 1), padding=(1, 1))
        )
        (skip_connection): Identity()
      )
    )
    (12): TimestepEmbedSequential(
      (0): ResBlock(
        (in_layers): Sequential(
          (0): GroupNorm32(32, 256, eps=1e-05, affine=True)
          (1): SiLU()
          (2): Conv2d(256, 256, kernel_size=(3, 3), stride=(1, 1), padding=(1, 1))
        )
        (h_upd): Downsample(
          (op): AvgPool2d(kernel_size=2, stride=2, padding=0)
        )
        (x_upd): Downsample(
          (op): AvgPool2d(kernel_size=2, stride=2, padding=0)
        )
        (emb_layers): Sequential(
          (0): SiLU()
          (1): Linear(in_features=512, out_features=512, bias=True)
        )
        (cond_emb_layers): Sequential(
          (0): SiLU()
          (1): Linear(in_features=512, out_features=256, bias=True)
        )
        (out_layers): Sequential(
          (0): GroupNorm32(32, 256, eps=1e-05, affine=True)
          (1): SiLU()
          (2): Dropout(p=0.1, inplace=False)
          (3): Conv2d(256, 256, kernel_size=(3, 3), stride=(1, 1), padding=(1, 1))
        )
        (skip_connection): Identity()
      )
    )
    (13): TimestepEmbedSequential(
      (0): ResBlock(
        (in_layers): Sequential(
          (0): GroupNorm32(32, 256, eps=1e-05, affine=True)
          (1): SiLU()
          (2): Conv2d(256, 512, kernel_size=(3, 3), stride=(1, 1), padding=(1, 1))
        )
        (h_upd): Identity()
        (x_upd): Identity()
        (emb_layers): Sequential(
          (0): SiLU()
          (1): Linear(in_features=512, out_features=1024, bias=True)
        )
        (cond_emb_layers): Sequential(
          (0): SiLU()
          (1): Linear(in_features=512, out_features=512, bias=True)
        )
        (out_layers): Sequential(
          (0): GroupNorm32(32, 512, eps=1e-05, affine=True)
          (1): SiLU()
          (2): Dropout(p=0.1, inplace=False)
          (3): Conv2d(512, 512, kernel_size=(3, 3), stride=(1, 1), padding=(1, 1))
        )
        (skip_connection): Conv2d(256, 512, kernel_size=(1, 1), stride=(1, 1))
      )
      (1): AttentionBlock(
        (norm): GroupNorm32(32, 512, eps=1e-05, affine=True)
        (qkv): Conv1d(512, 1536, kernel_size=(1,), stride=(1,))
        (attention): QKVAttentionLegacy()
        (proj_out): Conv1d(512, 512, kernel_size=(1,), stride=(1,))
      )
    )
    (14): TimestepEmbedSequential(
      (0): ResBlock(
        (in_layers): Sequential(
          (0): GroupNorm32(32, 512, eps=1e-05, affine=True)
          (1): SiLU()
          (2): Conv2d(512, 512, kernel_size=(3, 3), stride=(1, 1), padding=(1, 1))
        )
        (h_upd): Identity()
        (x_upd): Identity()
        (emb_layers): Sequential(
          (0): SiLU()
          (1): Linear(in_features=512, out_features=1024, bias=True)
        )
        (cond_emb_layers): Sequential(
          (0): SiLU()
          (1): Linear(in_features=512, out_features=512, bias=True)
        )
        (out_layers): Sequential(
          (0): GroupNorm32(32, 512, eps=1e-05, affine=True)
          (1): SiLU()
          (2): Dropout(p=0.1, inplace=False)
          (3): Conv2d(512, 512, kernel_size=(3, 3), stride=(1, 1), padding=(1, 1))
        )
        (skip_connection): Identity()
      )
      (1): AttentionBlock(
        (norm): GroupNorm32(32, 512, eps=1e-05, affine=True)
        (qkv): Conv1d(512, 1536, kernel_size=(1,), stride=(1,))
        (attention): QKVAttentionLegacy()
        (proj_out): Conv1d(512, 512, kernel_size=(1,), stride=(1,))
      )
    )
    (15): TimestepEmbedSequential(
      (0): ResBlock(
        (in_layers): Sequential(
          (0): GroupNorm32(32, 512, eps=1e-05, affine=True)
          (1): SiLU()
          (2): Conv2d(512, 512, kernel_size=(3, 3), stride=(1, 1), padding=(1, 1))
        )
        (h_upd): Downsample(
          (op): AvgPool2d(kernel_size=2, stride=2, padding=0)
        )
        (x_upd): Downsample(
          (op): AvgPool2d(kernel_size=2, stride=2, padding=0)
        )
        (emb_layers): Sequential(
          (0): SiLU()
          (1): Linear(in_features=512, out_features=1024, bias=True)
        )
        (cond_emb_layers): Sequential(
          (0): SiLU()
          (1): Linear(in_features=512, out_features=512, bias=True)
        )
        (out_layers): Sequential(
          (0): GroupNorm32(32, 512, eps=1e-05, affine=True)
          (1): SiLU()
          (2): Dropout(p=0.1, inplace=False)
          (3): Conv2d(512, 512, kernel_size=(3, 3), stride=(1, 1), padding=(1, 1))
        )
        (skip_connection): Identity()
      )
    )
    (16): TimestepEmbedSequential(
      (0): ResBlock(
        (in_layers): Sequential(
          (0): GroupNorm32(32, 512, eps=1e-05, affine=True)
          (1): SiLU()
          (2): Conv2d(512, 512, kernel_size=(3, 3), stride=(1, 1), padding=(1, 1))
        )
        (h_upd): Identity()
        (x_upd): Identity()
        (emb_layers): Sequential(
          (0): SiLU()
          (1): Linear(in_features=512, out_features=1024, bias=True)
        )
        (cond_emb_layers): Sequential(
          (0): SiLU()
          (1): Linear(in_features=512, out_features=512, bias=True)
        )
        (out_layers): Sequential(
          (0): GroupNorm32(32, 512, eps=1e-05, affine=True)
          (1): SiLU()
          (2): Dropout(p=0.1, inplace=False)
          (3): Conv2d(512, 512, kernel_size=(3, 3), stride=(1, 1), padding=(1, 1))
        )
        (skip_connection): Identity()
      )
    )
    (17): TimestepEmbedSequential(
      (0): ResBlock(
        (in_layers): Sequential(
          (0): GroupNorm32(32, 512, eps=1e-05, affine=True)
          (1): SiLU()
          (2): Conv2d(512, 512, kernel_size=(3, 3), stride=(1, 1), padding=(1, 1))
        )
        (h_upd): Identity()
        (x_upd): Identity()
        (emb_layers): Sequential(
          (0): SiLU()
          (1): Linear(in_features=512, out_features=1024, bias=True)
        )
        (cond_emb_layers): Sequential(
          (0): SiLU()
          (1): Linear(in_features=512, out_features=512, bias=True)
        )
        (out_layers): Sequential(
          (0): GroupNorm32(32, 512, eps=1e-05, affine=True)
          (1): SiLU()
          (2): Dropout(p=0.1, inplace=False)
          (3): Conv2d(512, 512, kernel_size=(3, 3), stride=(1, 1), padding=(1, 1))
        )
        (skip_connection): Identity()
      )
    )
  )
  (middle_block): TimestepEmbedSequential(
    (0): ResBlock(
      (in_layers): Sequential(
        (0): GroupNorm32(32, 512, eps=1e-05, affine=True)
        (1): SiLU()
        (2): Conv2d(512, 512, kernel_size=(3, 3), stride=(1, 1), padding=(1, 1))
      )
      (h_upd): Identity()
      (x_upd): Identity()
      (emb_layers): Sequential(
        (0): SiLU()
        (1): Linear(in_features=512, out_features=1024, bias=True)
      )
      (cond_emb_layers): Sequential(
        (0): SiLU()
        (1): Linear(in_features=512, out_features=512, bias=True)
      )
      (out_layers): Sequential(
        (0): GroupNorm32(32, 512, eps=1e-05, affine=True)
        (1): SiLU()
        (2): Dropout(p=0.1, inplace=False)
        (3): Conv2d(512, 512, kernel_size=(3, 3), stride=(1, 1), padding=(1, 1))
      )
      (skip_connection): Identity()
    )
    (1): AttentionBlock(
      (norm): GroupNorm32(32, 512, eps=1e-05, affine=True)
      (qkv): Conv1d(512, 1536, kernel_size=(1,), stride=(1,))
      (attention): QKVAttentionLegacy()
      (proj_out): Conv1d(512, 512, kernel_size=(1,), stride=(1,))
    )
    (2): ResBlock(
      (in_layers): Sequential(
        (0): GroupNorm32(32, 512, eps=1e-05, affine=True)
        (1): SiLU()
        (2): Conv2d(512, 512, kernel_size=(3, 3), stride=(1, 1), padding=(1, 1))
      )
      (h_upd): Identity()
      (x_upd): Identity()
      (emb_layers): Sequential(
        (0): SiLU()
        (1): Linear(in_features=512, out_features=1024, bias=True)
      )
      (cond_emb_layers): Sequential(
        (0): SiLU()
        (1): Linear(in_features=512, out_features=512, bias=True)
      )
      (out_layers): Sequential(
        (0): GroupNorm32(32, 512, eps=1e-05, affine=True)
        (1): SiLU()
        (2): Dropout(p=0.1, inplace=False)
        (3): Conv2d(512, 512, kernel_size=(3, 3), stride=(1, 1), padding=(1, 1))
      )
      (skip_connection): Identity()
    )
  )
  (output_blocks): ModuleList(
    (0): TimestepEmbedSequential(
      (0): ResBlock(
        (in_layers): Sequential(
          (0): GroupNorm32(32, 1024, eps=1e-05, affine=True)
          (1): SiLU()
          (2): Conv2d(1024, 512, kernel_size=(3, 3), stride=(1, 1), padding=(1, 1))
        )
        (h_upd): Identity()
        (x_upd): Identity()
        (emb_layers): Sequential(
          (0): SiLU()
          (1): Linear(in_features=512, out_features=1024, bias=True)
        )
        (cond_emb_layers): Sequential(
          (0): SiLU()
          (1): Linear(in_features=512, out_features=512, bias=True)
        )
        (out_layers): Sequential(
          (0): GroupNorm32(32, 512, eps=1e-05, affine=True)
          (1): SiLU()
          (2): Dropout(p=0.1, inplace=False)
          (3): Conv2d(512, 512, kernel_size=(3, 3), stride=(1, 1), padding=(1, 1))
        )
        (skip_connection): Conv2d(1024, 512, kernel_size=(1, 1), stride=(1, 1))
      )
    )
    (1): TimestepEmbedSequential(
      (0): ResBlock(
        (in_layers): Sequential(
          (0): GroupNorm32(32, 1024, eps=1e-05, affine=True)
          (1): SiLU()
          (2): Conv2d(1024, 512, kernel_size=(3, 3), stride=(1, 1), padding=(1, 1))
        )
        (h_upd): Identity()
        (x_upd): Identity()
        (emb_layers): Sequential(
          (0): SiLU()
          (1): Linear(in_features=512, out_features=1024, bias=True)
        )
        (cond_emb_layers): Sequential(
          (0): SiLU()
          (1): Linear(in_features=512, out_features=512, bias=True)
        )
        (out_layers): Sequential(
          (0): GroupNorm32(32, 512, eps=1e-05, affine=True)
          (1): SiLU()
          (2): Dropout(p=0.1, inplace=False)
          (3): Conv2d(512, 512, kernel_size=(3, 3), stride=(1, 1), padding=(1, 1))
        )
        (skip_connection): Conv2d(1024, 512, kernel_size=(1, 1), stride=(1, 1))
      )
    )
    (2): TimestepEmbedSequential(
      (0): ResBlock(
        (in_layers): Sequential(
          (0): GroupNorm32(32, 1024, eps=1e-05, affine=True)
          (1): SiLU()
          (2): Conv2d(1024, 512, kernel_size=(3, 3), stride=(1, 1), padding=(1, 1))
        )
        (h_upd): Identity()
        (x_upd): Identity()
        (emb_layers): Sequential(
          (0): SiLU()
          (1): Linear(in_features=512, out_features=1024, bias=True)
        )
        (cond_emb_layers): Sequential(
          (0): SiLU()
          (1): Linear(in_features=512, out_features=512, bias=True)
        )
        (out_layers): Sequential(
          (0): GroupNorm32(32, 512, eps=1e-05, affine=True)
          (1): SiLU()
          (2): Dropout(p=0.1, inplace=False)
          (3): Conv2d(512, 512, kernel_size=(3, 3), stride=(1, 1), padding=(1, 1))
        )
        (skip_connection): Conv2d(1024, 512, kernel_size=(1, 1), stride=(1, 1))
      )
      (1): ResBlock(
        (in_layers): Sequential(
          (0): GroupNorm32(32, 512, eps=1e-05, affine=True)
          (1): SiLU()
          (2): Conv2d(512, 512, kernel_size=(3, 3), stride=(1, 1), padding=(1, 1))
        )
        (h_upd): Upsample()
        (x_upd): Upsample()
        (emb_layers): Sequential(
          (0): SiLU()
          (1): Linear(in_features=512, out_features=1024, bias=True)
        )
        (cond_emb_layers): Sequential(
          (0): SiLU()
          (1): Linear(in_features=512, out_features=512, bias=True)
        )
        (out_layers): Sequential(
          (0): GroupNorm32(32, 512, eps=1e-05, affine=True)
          (1): SiLU()
          (2): Dropout(p=0.1, inplace=False)
          (3): Conv2d(512, 512, kernel_size=(3, 3), stride=(1, 1), padding=(1, 1))
        )
        (skip_connection): Identity()
      )
    )
    (3): TimestepEmbedSequential(
      (0): ResBlock(
        (in_layers): Sequential(
          (0): GroupNorm32(32, 1024, eps=1e-05, affine=True)
          (1): SiLU()
          (2): Conv2d(1024, 512, kernel_size=(3, 3), stride=(1, 1), padding=(1, 1))
        )
        (h_upd): Identity()
        (x_upd): Identity()
        (emb_layers): Sequential(
          (0): SiLU()
          (1): Linear(in_features=512, out_features=1024, bias=True)
        )
        (cond_emb_layers): Sequential(
          (0): SiLU()
          (1): Linear(in_features=512, out_features=512, bias=True)
        )
        (out_layers): Sequential(
          (0): GroupNorm32(32, 512, eps=1e-05, affine=True)
          (1): SiLU()
          (2): Dropout(p=0.1, inplace=False)
          (3): Conv2d(512, 512, kernel_size=(3, 3), stride=(1, 1), padding=(1, 1))
        )
        (skip_connection): Conv2d(1024, 512, kernel_size=(1, 1), stride=(1, 1))
      )
      (1): AttentionBlock(
        (norm): GroupNorm32(32, 512, eps=1e-05, affine=True)
        (qkv): Conv1d(512, 1536, kernel_size=(1,), stride=(1,))
        (attention): QKVAttentionLegacy()
        (proj_out): Conv1d(512, 512, kernel_size=(1,), stride=(1,))
      )
    )
    (4): TimestepEmbedSequential(
      (0): ResBlock(
        (in_layers): Sequential(
          (0): GroupNorm32(32, 1024, eps=1e-05, affine=True)
          (1): SiLU()
          (2): Conv2d(1024, 512, kernel_size=(3, 3), stride=(1, 1), padding=(1, 1))
        )
        (h_upd): Identity()
        (x_upd): Identity()
        (emb_layers): Sequential(
          (0): SiLU()
          (1): Linear(in_features=512, out_features=1024, bias=True)
        )
        (cond_emb_layers): Sequential(
          (0): SiLU()
          (1): Linear(in_features=512, out_features=512, bias=True)
        )
        (out_layers): Sequential(
          (0): GroupNorm32(32, 512, eps=1e-05, affine=True)
          (1): SiLU()
          (2): Dropout(p=0.1, inplace=False)
          (3): Conv2d(512, 512, kernel_size=(3, 3), stride=(1, 1), padding=(1, 1))
        )
        (skip_connection): Conv2d(1024, 512, kernel_size=(1, 1), stride=(1, 1))
      )
      (1): AttentionBlock(
        (norm): GroupNorm32(32, 512, eps=1e-05, affine=True)
        (qkv): Conv1d(512, 1536, kernel_size=(1,), stride=(1,))
        (attention): QKVAttentionLegacy()
        (proj_out): Conv1d(512, 512, kernel_size=(1,), stride=(1,))
      )
    )
    (5): TimestepEmbedSequential(
      (0): ResBlock(
        (in_layers): Sequential(
          (0): GroupNorm32(32, 768, eps=1e-05, affine=True)
          (1): SiLU()
          (2): Conv2d(768, 512, kernel_size=(3, 3), stride=(1, 1), padding=(1, 1))
        )
        (h_upd): Identity()
        (x_upd): Identity()
        (emb_layers): Sequential(
          (0): SiLU()
          (1): Linear(in_features=512, out_features=1024, bias=True)
        )
        (cond_emb_layers): Sequential(
          (0): SiLU()
          (1): Linear(in_features=512, out_features=512, bias=True)
        )
        (out_layers): Sequential(
          (0): GroupNorm32(32, 512, eps=1e-05, affine=True)
          (1): SiLU()
          (2): Dropout(p=0.1, inplace=False)
          (3): Conv2d(512, 512, kernel_size=(3, 3), stride=(1, 1), padding=(1, 1))
        )
        (skip_connection): Conv2d(768, 512, kernel_size=(1, 1), stride=(1, 1))
      )
      (1): AttentionBlock(
        (norm): GroupNorm32(32, 512, eps=1e-05, affine=True)
        (qkv): Conv1d(512, 1536, kernel_size=(1,), stride=(1,))
        (attention): QKVAttentionLegacy()
        (proj_out): Conv1d(512, 512, kernel_size=(1,), stride=(1,))
      )
      (2): ResBlock(
        (in_layers): Sequential(
          (0): GroupNorm32(32, 512, eps=1e-05, affine=True)
          (1): SiLU()
          (2): Conv2d(512, 512, kernel_size=(3, 3), stride=(1, 1), padding=(1, 1))
        )
        (h_upd): Upsample()
        (x_upd): Upsample()
        (emb_layers): Sequential(
          (0): SiLU()
          (1): Linear(in_features=512, out_features=1024, bias=True)
        )
        (cond_emb_layers): Sequential(
          (0): SiLU()
          (1): Linear(in_features=512, out_features=512, bias=True)
        )
        (out_layers): Sequential(
          (0): GroupNorm32(32, 512, eps=1e-05, affine=True)
          (1): SiLU()
          (2): Dropout(p=0.1, inplace=False)
          (3): Conv2d(512, 512, kernel_size=(3, 3), stride=(1, 1), padding=(1, 1))
        )
        (skip_connection): Identity()
      )
    )
    (6): TimestepEmbedSequential(
      (0): ResBlock(
        (in_layers): Sequential(
          (0): GroupNorm32(32, 768, eps=1e-05, affine=True)
          (1): SiLU()
          (2): Conv2d(768, 256, kernel_size=(3, 3), stride=(1, 1), padding=(1, 1))
        )
        (h_upd): Identity()
        (x_upd): Identity()
        (emb_layers): Sequential(
          (0): SiLU()
          (1): Linear(in_features=512, out_features=512, bias=True)
        )
        (cond_emb_layers): Sequential(
          (0): SiLU()
          (1): Linear(in_features=512, out_features=256, bias=True)
        )
        (out_layers): Sequential(
          (0): GroupNorm32(32, 256, eps=1e-05, affine=True)
          (1): SiLU()
          (2): Dropout(p=0.1, inplace=False)
          (3): Conv2d(256, 256, kernel_size=(3, 3), stride=(1, 1), padding=(1, 1))
        )
        (skip_connection): Conv2d(768, 256, kernel_size=(1, 1), stride=(1, 1))
      )
    )
    (7): TimestepEmbedSequential(
      (0): ResBlock(
        (in_layers): Sequential(
          (0): GroupNorm32(32, 512, eps=1e-05, affine=True)
          (1): SiLU()
          (2): Conv2d(512, 256, kernel_size=(3, 3), stride=(1, 1), padding=(1, 1))
        )
        (h_upd): Identity()
        (x_upd): Identity()
        (emb_layers): Sequential(
          (0): SiLU()
          (1): Linear(in_features=512, out_features=512, bias=True)
        )
        (cond_emb_layers): Sequential(
          (0): SiLU()
          (1): Linear(in_features=512, out_features=256, bias=True)
        )
        (out_layers): Sequential(
          (0): GroupNorm32(32, 256, eps=1e-05, affine=True)
          (1): SiLU()
          (2): Dropout(p=0.1, inplace=False)
          (3): Conv2d(256, 256, kernel_size=(3, 3), stride=(1, 1), padding=(1, 1))
        )
        (skip_connection): Conv2d(512, 256, kernel_size=(1, 1), stride=(1, 1))
      )
    )
    (8): TimestepEmbedSequential(
      (0): ResBlock(
        (in_layers): Sequential(
          (0): GroupNorm32(32, 512, eps=1e-05, affine=True)
          (1): SiLU()
          (2): Conv2d(512, 256, kernel_size=(3, 3), stride=(1, 1), padding=(1, 1))
        )
        (h_upd): Identity()
        (x_upd): Identity()
        (emb_layers): Sequential(
          (0): SiLU()
          (1): Linear(in_features=512, out_features=512, bias=True)
        )
        (cond_emb_layers): Sequential(
          (0): SiLU()
          (1): Linear(in_features=512, out_features=256, bias=True)
        )
        (out_layers): Sequential(
          (0): GroupNorm32(32, 256, eps=1e-05, affine=True)
          (1): SiLU()
          (2): Dropout(p=0.1, inplace=False)
          (3): Conv2d(256, 256, kernel_size=(3, 3), stride=(1, 1), padding=(1, 1))
        )
        (skip_connection): Conv2d(512, 256, kernel_size=(1, 1), stride=(1, 1))
      )
      (1): ResBlock(
        (in_layers): Sequential(
          (0): GroupNorm32(32, 256, eps=1e-05, affine=True)
          (1): SiLU()
          (2): Conv2d(256, 256, kernel_size=(3, 3), stride=(1, 1), padding=(1, 1))
        )
        (h_upd): Upsample()
        (x_upd): Upsample()
        (emb_layers): Sequential(
          (0): SiLU()
          (1): Linear(in_features=512, out_features=512, bias=True)
        )
        (cond_emb_layers): Sequential(
          (0): SiLU()
          (1): Linear(in_features=512, out_features=256, bias=True)
        )
        (out_layers): Sequential(
          (0): GroupNorm32(32, 256, eps=1e-05, affine=True)
          (1): SiLU()
          (2): Dropout(p=0.1, inplace=False)
          (3): Conv2d(256, 256, kernel_size=(3, 3), stride=(1, 1), padding=(1, 1))
        )
        (skip_connection): Identity()
      )
    )
    (9): TimestepEmbedSequential(
      (0): ResBlock(
        (in_layers): Sequential(
          (0): GroupNorm32(32, 512, eps=1e-05, affine=True)
          (1): SiLU()
          (2): Conv2d(512, 256, kernel_size=(3, 3), stride=(1, 1), padding=(1, 1))
        )
        (h_upd): Identity()
        (x_upd): Identity()
        (emb_layers): Sequential(
          (0): SiLU()
          (1): Linear(in_features=512, out_features=512, bias=True)
        )
        (cond_emb_layers): Sequential(
          (0): SiLU()
          (1): Linear(in_features=512, out_features=256, bias=True)
        )
        (out_layers): Sequential(
          (0): GroupNorm32(32, 256, eps=1e-05, affine=True)
          (1): SiLU()
          (2): Dropout(p=0.1, inplace=False)
          (3): Conv2d(256, 256, kernel_size=(3, 3), stride=(1, 1), padding=(1, 1))
        )
        (skip_connection): Conv2d(512, 256, kernel_size=(1, 1), stride=(1, 1))
      )
    )
    (10): TimestepEmbedSequential(
      (0): ResBlock(
        (in_layers): Sequential(
          (0): GroupNorm32(32, 512, eps=1e-05, affine=True)
          (1): SiLU()
          (2): Conv2d(512, 256, kernel_size=(3, 3), stride=(1, 1), padding=(1, 1))
        )
        (h_upd): Identity()
        (x_upd): Identity()
        (emb_layers): Sequential(
          (0): SiLU()
          (1): Linear(in_features=512, out_features=512, bias=True)
        )
        (cond_emb_layers): Sequential(
          (0): SiLU()
          (1): Linear(in_features=512, out_features=256, bias=True)
        )
        (out_layers): Sequential(
          (0): GroupNorm32(32, 256, eps=1e-05, affine=True)
          (1): SiLU()
          (2): Dropout(p=0.1, inplace=False)
          (3): Conv2d(256, 256, kernel_size=(3, 3), stride=(1, 1), padding=(1, 1))
        )
        (skip_connection): Conv2d(512, 256, kernel_size=(1, 1), stride=(1, 1))
      )
    )
    (11): TimestepEmbedSequential(
      (0): ResBlock(
        (in_layers): Sequential(
          (0): GroupNorm32(32, 384, eps=1e-05, affine=True)
          (1): SiLU()
          (2): Conv2d(384, 256, kernel_size=(3, 3), stride=(1, 1), padding=(1, 1))
        )
        (h_upd): Identity()
        (x_upd): Identity()
        (emb_layers): Sequential(
          (0): SiLU()
          (1): Linear(in_features=512, out_features=512, bias=True)
        )
        (cond_emb_layers): Sequential(
          (0): SiLU()
          (1): Linear(in_features=512, out_features=256, bias=True)
        )
        (out_layers): Sequential(
          (0): GroupNorm32(32, 256, eps=1e-05, affine=True)
          (1): SiLU()
          (2): Dropout(p=0.1, inplace=False)
          (3): Conv2d(256, 256, kernel_size=(3, 3), stride=(1, 1), padding=(1, 1))
        )
        (skip_connection): Conv2d(384, 256, kernel_size=(1, 1), stride=(1, 1))
      )
      (1): ResBlock(
        (in_layers): Sequential(
          (0): GroupNorm32(32, 256, eps=1e-05, affine=True)
          (1): SiLU()
          (2): Conv2d(256, 256, kernel_size=(3, 3), stride=(1, 1), padding=(1, 1))
        )
        (h_upd): Upsample()
        (x_upd): Upsample()
        (emb_layers): Sequential(
          (0): SiLU()
          (1): Linear(in_features=512, out_features=512, bias=True)
        )
        (cond_emb_layers): Sequential(
          (0): SiLU()
          (1): Linear(in_features=512, out_features=256, bias=True)
        )
        (out_layers): Sequential(
          (0): GroupNorm32(32, 256, eps=1e-05, affine=True)
          (1): SiLU()
          (2): Dropout(p=0.1, inplace=False)
          (3): Conv2d(256, 256, kernel_size=(3, 3), stride=(1, 1), padding=(1, 1))
        )
        (skip_connection): Identity()
      )
    )
    (12): TimestepEmbedSequential(
      (0): ResBlock(
        (in_layers): Sequential(
          (0): GroupNorm32(32, 384, eps=1e-05, affine=True)
          (1): SiLU()
          (2): Conv2d(384, 128, kernel_size=(3, 3), stride=(1, 1), padding=(1, 1))
        )
        (h_upd): Identity()
        (x_upd): Identity()
        (emb_layers): Sequential(
          (0): SiLU()
          (1): Linear(in_features=512, out_features=256, bias=True)
        )
        (cond_emb_layers): Sequential(
          (0): SiLU()
          (1): Linear(in_features=512, out_features=128, bias=True)
        )
        (out_layers): Sequential(
          (0): GroupNorm32(32, 128, eps=1e-05, affine=True)
          (1): SiLU()
          (2): Dropout(p=0.1, inplace=False)
          (3): Conv2d(128, 128, kernel_size=(3, 3), stride=(1, 1), padding=(1, 1))
        )
        (skip_connection): Conv2d(384, 128, kernel_size=(1, 1), stride=(1, 1))
      )
    )
    (13): TimestepEmbedSequential(
      (0): ResBlock(
        (in_layers): Sequential(
          (0): GroupNorm32(32, 256, eps=1e-05, affine=True)
          (1): SiLU()
          (2): Conv2d(256, 128, kernel_size=(3, 3), stride=(1, 1), padding=(1, 1))
        )
        (h_upd): Identity()
        (x_upd): Identity()
        (emb_layers): Sequential(
          (0): SiLU()
          (1): Linear(in_features=512, out_features=256, bias=True)
        )
        (cond_emb_layers): Sequential(
          (0): SiLU()
          (1): Linear(in_features=512, out_features=128, bias=True)
        )
        (out_layers): Sequential(
          (0): GroupNorm32(32, 128, eps=1e-05, affine=True)
          (1): SiLU()
          (2): Dropout(p=0.1, inplace=False)
          (3): Conv2d(128, 128, kernel_size=(3, 3), stride=(1, 1), padding=(1, 1))
        )
        (skip_connection): Conv2d(256, 128, kernel_size=(1, 1), stride=(1, 1))
      )
    )
    (14): TimestepEmbedSequential(
      (0): ResBlock(
        (in_layers): Sequential(
          (0): GroupNorm32(32, 256, eps=1e-05, affine=True)
          (1): SiLU()
          (2): Conv2d(256, 128, kernel_size=(3, 3), stride=(1, 1), padding=(1, 1))
        )
        (h_upd): Identity()
        (x_upd): Identity()
        (emb_layers): Sequential(
          (0): SiLU()
          (1): Linear(in_features=512, out_features=256, bias=True)
        )
        (cond_emb_layers): Sequential(
          (0): SiLU()
          (1): Linear(in_features=512, out_features=128, bias=True)
        )
        (out_layers): Sequential(
          (0): GroupNorm32(32, 128, eps=1e-05, affine=True)
          (1): SiLU()
          (2): Dropout(p=0.1, inplace=False)
          (3): Conv2d(128, 128, kernel_size=(3, 3), stride=(1, 1), padding=(1, 1))
        )
        (skip_connection): Conv2d(256, 128, kernel_size=(1, 1), stride=(1, 1))
      )
      (1): ResBlock(
        (in_layers): Sequential(
          (0): GroupNorm32(32, 128, eps=1e-05, affine=True)
          (1): SiLU()
          (2): Conv2d(128, 128, kernel_size=(3, 3), stride=(1, 1), padding=(1, 1))
        )
        (h_upd): Upsample()
        (x_upd): Upsample()
        (emb_layers): Sequential(
          (0): SiLU()
          (1): Linear(in_features=512, out_features=256, bias=True)
        )
        (cond_emb_layers): Sequential(
          (0): SiLU()
          (1): Linear(in_features=512, out_features=128, bias=True)
        )
        (out_layers): Sequential(
          (0): GroupNorm32(32, 128, eps=1e-05, affine=True)
          (1): SiLU()
          (2): Dropout(p=0.1, inplace=False)
          (3): Conv2d(128, 128, kernel_size=(3, 3), stride=(1, 1), padding=(1, 1))
        )
        (skip_connection): Identity()
      )
    )
    (15): TimestepEmbedSequential(
      (0): ResBlock(
        (in_layers): Sequential(
          (0): GroupNorm32(32, 256, eps=1e-05, affine=True)
          (1): SiLU()
          (2): Conv2d(256, 128, kernel_size=(3, 3), stride=(1, 1), padding=(1, 1))
        )
        (h_upd): Identity()
        (x_upd): Identity()
        (emb_layers): Sequential(
          (0): SiLU()
          (1): Linear(in_features=512, out_features=256, bias=True)
        )
        (cond_emb_layers): Sequential(
          (0): SiLU()
          (1): Linear(in_features=512, out_features=128, bias=True)
        )
        (out_layers): Sequential(
          (0): GroupNorm32(32, 128, eps=1e-05, affine=True)
          (1): SiLU()
          (2): Dropout(p=0.1, inplace=False)
          (3): Conv2d(128, 128, kernel_size=(3, 3), stride=(1, 1), padding=(1, 1))
        )
        (skip_connection): Conv2d(256, 128, kernel_size=(1, 1), stride=(1, 1))
      )
    )
    (16): TimestepEmbedSequential(
      (0): ResBlock(
        (in_layers): Sequential(
          (0): GroupNorm32(32, 256, eps=1e-05, affine=True)
          (1): SiLU()
          (2): Conv2d(256, 128, kernel_size=(3, 3), stride=(1, 1), padding=(1, 1))
        )
        (h_upd): Identity()
        (x_upd): Identity()
        (emb_layers): Sequential(
          (0): SiLU()
          (1): Linear(in_features=512, out_features=256, bias=True)
        )
        (cond_emb_layers): Sequential(
          (0): SiLU()
          (1): Linear(in_features=512, out_features=128, bias=True)
        )
        (out_layers): Sequential(
          (0): GroupNorm32(32, 128, eps=1e-05, affine=True)
          (1): SiLU()
          (2): Dropout(p=0.1, inplace=False)
          (3): Conv2d(128, 128, kernel_size=(3, 3), stride=(1, 1), padding=(1, 1))
        )
        (skip_connection): Conv2d(256, 128, kernel_size=(1, 1), stride=(1, 1))
      )
    )
    (17): TimestepEmbedSequential(
      (0): ResBlock(
        (in_layers): Sequential(
          (0): GroupNorm32(32, 256, eps=1e-05, affine=True)
          (1): SiLU()
          (2): Conv2d(256, 128, kernel_size=(3, 3), stride=(1, 1), padding=(1, 1))
        )
        (h_upd): Identity()
        (x_upd): Identity()
        (emb_layers): Sequential(
          (0): SiLU()
          (1): Linear(in_features=512, out_features=256, bias=True)
        )
        (cond_emb_layers): Sequential(
          (0): SiLU()
          (1): Linear(in_features=512, out_features=128, bias=True)
        )
        (out_layers): Sequential(
          (0): GroupNorm32(32, 128, eps=1e-05, affine=True)
          (1): SiLU()
          (2): Dropout(p=0.1, inplace=False)
          (3): Conv2d(128, 128, kernel_size=(3, 3), stride=(1, 1), padding=(1, 1))
        )
        (skip_connection): Conv2d(256, 128, kernel_size=(1, 1), stride=(1, 1))
      )
    )
  )
  (out): Sequential(
    (0): GroupNorm32(32, 128, eps=1e-05, affine=True)
    (1): SiLU()
    (2): Conv2d(128, 1, kernel_size=(3, 3), stride=(1, 1), padding=(1, 1))
  )
  (encoder): BeatGANsE2EModel(
    (input_blocks): ModuleList(
      (0): TimestepEmbedSequential(
        (0): Conv2d(1, 128, kernel_size=(3, 3), stride=(1, 1), padding=(1, 1))
      )
      (1): TimestepEmbedSequential(
        (0): ResBlock(
          (in_layers): Sequential(
            (0): GroupNorm32(32, 128, eps=1e-05, affine=True)
            (1): SiLU()
            (2): Conv2d(128, 128, kernel_size=(3, 3), stride=(1, 1), padding=(1, 1))
          )
          (h_upd): Identity()
          (x_upd): Identity()
          (skip_connection): Identity()
        )
      )
      (2): TimestepEmbedSequential(
        (0): ResBlock(
          (in_layers): Sequential(
            (0): GroupNorm32(32, 128, eps=1e-05, affine=True)
            (1): SiLU()
            (2): Conv2d(128, 128, kernel_size=(3, 3), stride=(1, 1), padding=(1, 1))
          )
          (h_upd): Identity()
          (x_upd): Identity()
          (skip_connection): Identity()
        )
      )
      (3): TimestepEmbedSequential(
        (0): ResBlock(
          (in_layers): Sequential(
            (0): GroupNorm32(32, 128, eps=1e-05, affine=True)
            (1): SiLU()
            (2): Conv2d(128, 128, kernel_size=(3, 3), stride=(1, 1), padding=(1, 1))
          )
          (h_upd): Downsample(
            (op): AvgPool2d(kernel_size=2, stride=2, padding=0)
          )
          (x_upd): Downsample(
            (op): AvgPool2d(kernel_size=2, stride=2, padding=0)
          )
          (skip_connection): Identity()
        )
      )
      (4): TimestepEmbedSequential(
        (0): ResBlock(
          (in_layers): Sequential(
            (0): GroupNorm32(32, 128, eps=1e-05, affine=True)
            (1): SiLU()
            (2): Conv2d(128, 128, kernel_size=(3, 3), stride=(1, 1), padding=(1, 1))
          )
          (h_upd): Identity()
          (x_upd): Identity()
          (skip_connection): Identity()
        )
      )
      (5): TimestepEmbedSequential(
        (0): ResBlock(
          (in_layers): Sequential(
            (0): GroupNorm32(32, 128, eps=1e-05, affine=True)
            (1): SiLU()
            (2): Conv2d(128, 128, kernel_size=(3, 3), stride=(1, 1), padding=(1, 1))
          )
          (h_upd): Identity()
          (x_upd): Identity()
          (skip_connection): Identity()
        )
      )
      (6): TimestepEmbedSequential(
        (0): ResBlock(
          (in_layers): Sequential(
            (0): GroupNorm32(32, 128, eps=1e-05, affine=True)
            (1): SiLU()
            (2): Conv2d(128, 128, kernel_size=(3, 3), stride=(1, 1), padding=(1, 1))
          )
          (h_upd): Downsample(
            (op): AvgPool2d(kernel_size=2, stride=2, padding=0)
          )
          (x_upd): Downsample(
            (op): AvgPool2d(kernel_size=2, stride=2, padding=0)
          )
          (skip_connection): Identity()
        )
      )
      (7): TimestepEmbedSequential(
        (0): ResBlock(
          (in_layers): Sequential(
            (0): GroupNorm32(32, 128, eps=1e-05, affine=True)
            (1): SiLU()
            (2): Conv2d(128, 256, kernel_size=(3, 3), stride=(1, 1), padding=(1, 1))
          )
          (h_upd): Identity()
          (x_upd): Identity()
          (skip_connection): Conv2d(128, 256, kernel_size=(1, 1), stride=(1, 1))
        )
      )
      (8): TimestepEmbedSequential(
        (0): ResBlock(
          (in_layers): Sequential(
            (0): GroupNorm32(32, 256, eps=1e-05, affine=True)
            (1): SiLU()
            (2): Conv2d(256, 256, kernel_size=(3, 3), stride=(1, 1), padding=(1, 1))
          )
          (h_upd): Identity()
          (x_upd): Identity()
          (skip_connection): Identity()
        )
      )
      (9): TimestepEmbedSequential(
        (0): ResBlock(
          (in_layers): Sequential(
            (0): GroupNorm32(32, 256, eps=1e-05, affine=True)
            (1): SiLU()
            (2): Conv2d(256, 256, kernel_size=(3, 3), stride=(1, 1), padding=(1, 1))
          )
          (h_upd): Downsample(
            (op): AvgPool2d(kernel_size=2, stride=2, padding=0)
          )
          (x_upd): Downsample(
            (op): AvgPool2d(kernel_size=2, stride=2, padding=0)
          )
          (skip_connection): Identity()
        )
      )
      (10): TimestepEmbedSequential(
        (0): ResBlock(
          (in_layers): Sequential(
            (0): GroupNorm32(32, 256, eps=1e-05, affine=True)
            (1): SiLU()
            (2): Conv2d(256, 256, kernel_size=(3, 3), stride=(1, 1), padding=(1, 1))
          )
          (h_upd): Identity()
          (x_upd): Identity()
          (skip_connection): Identity()
        )
      )
      (11): TimestepEmbedSequential(
        (0): ResBlock(
          (in_layers): Sequential(
            (0): GroupNorm32(32, 256, eps=1e-05, affine=True)
            (1): SiLU()
            (2): Conv2d(256, 256, kernel_size=(3, 3), stride=(1, 1), padding=(1, 1))
          )
          (h_upd): Identity()
          (x_upd): Identity()
          (skip_connection): Identity()
        )
      )
      (12): TimestepEmbedSequential(
        (0): ResBlock(
          (in_layers): Sequential(
            (0): GroupNorm32(32, 256, eps=1e-05, affine=True)
            (1): SiLU()
            (2): Conv2d(256, 256, kernel_size=(3, 3), stride=(1, 1), padding=(1, 1))
          )
          (h_upd): Downsample(
            (op): AvgPool2d(kernel_size=2, stride=2, padding=0)
          )
          (x_upd): Downsample(
            (op): AvgPool2d(kernel_size=2, stride=2, padding=0)
          )
          (skip_connection): Identity()
        )
      )
      (13): TimestepEmbedSequential(
        (0): ResBlock(
          (in_layers): Sequential(
            (0): GroupNorm32(32, 256, eps=1e-05, affine=True)
            (1): SiLU()
            (2): Conv2d(256, 512, kernel_size=(3, 3), stride=(1, 1), padding=(1, 1))
          )
          (h_upd): Identity()
          (x_upd): Identity()
          (skip_connection): Conv2d(256, 512, kernel_size=(1, 1), stride=(1, 1))
        )
        (1): AttentionBlock(
          (norm): GroupNorm32(32, 512, eps=1e-05, affine=True)
          (qkv): Conv1d(512, 1536, kernel_size=(1,), stride=(1,))
          (attention): QKVAttentionLegacy()
          (proj_out): Conv1d(512, 512, kernel_size=(1,), stride=(1,))
        )
      )
      (14): TimestepEmbedSequential(
        (0): ResBlock(
          (in_layers): Sequential(
            (0): GroupNorm32(32, 512, eps=1e-05, affine=True)
            (1): SiLU()
            (2): Conv2d(512, 512, kernel_size=(3, 3), stride=(1, 1), padding=(1, 1))
          )
          (h_upd): Identity()
          (x_upd): Identity()
          (skip_connection): Identity()
        )
        (1): AttentionBlock(
          (norm): GroupNorm32(32, 512, eps=1e-05, affine=True)
          (qkv): Conv1d(512, 1536, kernel_size=(1,), stride=(1,))
          (attention): QKVAttentionLegacy()
          (proj_out): Conv1d(512, 512, kernel_size=(1,), stride=(1,))
        )
      )
      (15): TimestepEmbedSequential(
        (0): ResBlock(
          (in_layers): Sequential(
            (0): GroupNorm32(32, 512, eps=1e-05, affine=True)
            (1): SiLU()
            (2): Conv2d(512, 512, kernel_size=(3, 3), stride=(1, 1), padding=(1, 1))
          )
          (h_upd): Downsample(
            (op): AvgPool2d(kernel_size=2, stride=2, padding=0)
          )
          (x_upd): Downsample(
            (op): AvgPool2d(kernel_size=2, stride=2, padding=0)
          )
          (skip_connection): Identity()
        )
      )
      (16): TimestepEmbedSequential(
        (0): ResBlock(
          (in_layers): Sequential(
            (0): GroupNorm32(32, 512, eps=1e-05, affine=True)
            (1): SiLU()
            (2): Conv2d(512, 512, kernel_size=(3, 3), stride=(1, 1), padding=(1, 1))
          )
          (h_upd): Identity()
          (x_upd): Identity()
          (skip_connection): Identity()
        )
      )
      (17): TimestepEmbedSequential(
        (0): ResBlock(
          (in_layers): Sequential(
            (0): GroupNorm32(32, 512, eps=1e-05, affine=True)
            (1): SiLU()
            (2): Conv2d(512, 512, kernel_size=(3, 3), stride=(1, 1), padding=(1, 1))
          )
          (h_upd): Identity()
          (x_upd): Identity()
          (skip_connection): Identity()
        )
      )
      (18): TimestepEmbedSequential(
        (0): ResBlock(
          (in_layers): Sequential(
            (0): GroupNorm32(32, 512, eps=1e-05, affine=True)
            (1): SiLU()
            (2): Conv2d(512, 512, kernel_size=(3, 3), stride=(1, 1), padding=(1, 1))
          )
          (h_upd): Downsample(
            (op): AvgPool2d(kernel_size=2, stride=2, padding=0)
          )
          (x_upd): Downsample(
            (op): AvgPool2d(kernel_size=2, stride=2, padding=0)
          )
          (skip_connection): Identity()
        )
      )
      (19): TimestepEmbedSequential(
        (0): ResBlock(
          (in_layers): Sequential(
            (0): GroupNorm32(32, 512, eps=1e-05, affine=True)
            (1): SiLU()
            (2): Conv2d(512, 512, kernel_size=(3, 3), stride=(1, 1), padding=(1, 1))
          )
          (h_upd): Identity()
          (x_upd): Identity()
          (skip_connection): Identity()
        )
      )
      (20): TimestepEmbedSequential(
        (0): ResBlock(
          (in_layers): Sequential(
            (0): GroupNorm32(32, 512, eps=1e-05, affine=True)
            (1): SiLU()
            (2): Conv2d(512, 512, kernel_size=(3, 3), stride=(1, 1), padding=(1, 1))
          )
          (h_upd): Identity()
          (x_upd): Identity()
          (skip_connection): Identity()
        )
      )
    )
    (middle_block): TimestepEmbedSequential(
      (0): ResBlock(
        (in_layers): Sequential(
          (0): GroupNorm32(32, 512, eps=1e-05, affine=True)
          (1): SiLU()
          (2): Conv2d(512, 512, kernel_size=(3, 3), stride=(1, 1), padding=(1, 1))
        )
        (h_upd): Identity()
        (x_upd): Identity()
        (skip_connection): Identity()
      )
      (1): AttentionBlock(
        (norm): GroupNorm32(32, 512, eps=1e-05, affine=True)
        (qkv): Conv1d(512, 1536, kernel_size=(1,), stride=(1,))
        (attention): QKVAttentionLegacy()
        (proj_out): Conv1d(512, 512, kernel_size=(1,), stride=(1,))
      )
      (2): ResBlock(
        (in_layers): Sequential(
          (0): GroupNorm32(32, 512, eps=1e-05, affine=True)
          (1): SiLU()
          (2): Conv2d(512, 512, kernel_size=(3, 3), stride=(1, 1), padding=(1, 1))
        )
        (h_upd): Identity()
        (x_upd): Identity()
        (skip_connection): Identity()
      )
    )
    (out_latent): Sequential(
      (0): GroupNorm32(32, 512, eps=1e-05, affine=True)
      (1): SiLU()
      (2): AdaptiveAvgPool2d(output_size=(1, 1))
      (3): Conv2d(512, 512, kernel_size=(1, 1), stride=(1, 1))
      (4): Flatten(start_dim=1, end_dim=-1)
    )
    (output_blocks): ModuleList(
      (0): TimestepEmbedSequential(
        (0): ResBlock(
          (in_layers): Sequential(
            (0): GroupNorm32(32, 1024, eps=1e-05, affine=True)
            (1): SiLU()
            (2): Conv2d(1024, 512, kernel_size=(3, 3), stride=(1, 1), padding=(1, 1))
          )
          (h_upd): Identity()
          (x_upd): Identity()
          (skip_connection): Conv2d(1024, 512, kernel_size=(1, 1), stride=(1, 1))
        )
      )
      (1): TimestepEmbedSequential(
        (0): ResBlock(
          (in_layers): Sequential(
            (0): GroupNorm32(32, 1024, eps=1e-05, affine=True)
            (1): SiLU()
            (2): Conv2d(1024, 512, kernel_size=(3, 3), stride=(1, 1), padding=(1, 1))
          )
          (h_upd): Identity()
          (x_upd): Identity()
          (skip_connection): Conv2d(1024, 512, kernel_size=(1, 1), stride=(1, 1))
        )
      )
      (2): TimestepEmbedSequential(
        (0): ResBlock(
          (in_layers): Sequential(
            (0): GroupNorm32(32, 1024, eps=1e-05, affine=True)
            (1): SiLU()
            (2): Conv2d(1024, 512, kernel_size=(3, 3), stride=(1, 1), padding=(1, 1))
          )
          (h_upd): Identity()
          (x_upd): Identity()
          (skip_connection): Conv2d(1024, 512, kernel_size=(1, 1), stride=(1, 1))
        )
        (1): ResBlock(
          (in_layers): Sequential(
            (0): GroupNorm32(32, 512, eps=1e-05, affine=True)
            (1): SiLU()
            (2): Conv2d(512, 512, kernel_size=(3, 3), stride=(1, 1), padding=(1, 1))
          )
          (h_upd): Upsample()
          (x_upd): Upsample()
          (skip_connection): Identity()
        )
      )
      (3): TimestepEmbedSequential(
        (0): ResBlock(
          (in_layers): Sequential(
            (0): GroupNorm32(32, 1024, eps=1e-05, affine=True)
            (1): SiLU()
            (2): Conv2d(1024, 512, kernel_size=(3, 3), stride=(1, 1), padding=(1, 1))
          )
          (h_upd): Identity()
          (x_upd): Identity()
          (skip_connection): Conv2d(1024, 512, kernel_size=(1, 1), stride=(1, 1))
        )
      )
      (4): TimestepEmbedSequential(
        (0): ResBlock(
          (in_layers): Sequential(
            (0): GroupNorm32(32, 1024, eps=1e-05, affine=True)
            (1): SiLU()
            (2): Conv2d(1024, 512, kernel_size=(3, 3), stride=(1, 1), padding=(1, 1))
          )
          (h_upd): Identity()
          (x_upd): Identity()
          (skip_connection): Conv2d(1024, 512, kernel_size=(1, 1), stride=(1, 1))
        )
      )
      (5): TimestepEmbedSequential(
        (0): ResBlock(
          (in_layers): Sequential(
            (0): GroupNorm32(32, 1024, eps=1e-05, affine=True)
            (1): SiLU()
            (2): Conv2d(1024, 512, kernel_size=(3, 3), stride=(1, 1), padding=(1, 1))
          )
          (h_upd): Identity()
          (x_upd): Identity()
          (skip_connection): Conv2d(1024, 512, kernel_size=(1, 1), stride=(1, 1))
        )
        (1): ResBlock(
          (in_layers): Sequential(
            (0): GroupNorm32(32, 512, eps=1e-05, affine=True)
            (1): SiLU()
            (2): Conv2d(512, 512, kernel_size=(3, 3), stride=(1, 1), padding=(1, 1))
          )
          (h_upd): Upsample()
          (x_upd): Upsample()
          (skip_connection): Identity()
        )
      )
      (6): TimestepEmbedSequential(
        (0): ResBlock(
          (in_layers): Sequential(
            (0): GroupNorm32(32, 1024, eps=1e-05, affine=True)
            (1): SiLU()
            (2): Conv2d(1024, 512, kernel_size=(3, 3), stride=(1, 1), padding=(1, 1))
          )
          (h_upd): Identity()
          (x_upd): Identity()
          (skip_connection): Conv2d(1024, 512, kernel_size=(1, 1), stride=(1, 1))
        )
        (1): AttentionBlock(
          (norm): GroupNorm32(32, 512, eps=1e-05, affine=True)
          (qkv): Conv1d(512, 1536, kernel_size=(1,), stride=(1,))
          (attention): QKVAttentionLegacy()
          (proj_out): Conv1d(512, 512, kernel_size=(1,), stride=(1,))
        )
      )
      (7): TimestepEmbedSequential(
        (0): ResBlock(
          (in_layers): Sequential(
            (0): GroupNorm32(32, 1024, eps=1e-05, affine=True)
            (1): SiLU()
            (2): Conv2d(1024, 512, kernel_size=(3, 3), stride=(1, 1), padding=(1, 1))
          )
          (h_upd): Identity()
          (x_upd): Identity()
          (skip_connection): Conv2d(1024, 512, kernel_size=(1, 1), stride=(1, 1))
        )
        (1): AttentionBlock(
          (norm): GroupNorm32(32, 512, eps=1e-05, affine=True)
          (qkv): Conv1d(512, 1536, kernel_size=(1,), stride=(1,))
          (attention): QKVAttentionLegacy()
          (proj_out): Conv1d(512, 512, kernel_size=(1,), stride=(1,))
        )
      )
      (8): TimestepEmbedSequential(
        (0): ResBlock(
          (in_layers): Sequential(
            (0): GroupNorm32(32, 768, eps=1e-05, affine=True)
            (1): SiLU()
            (2): Conv2d(768, 512, kernel_size=(3, 3), stride=(1, 1), padding=(1, 1))
          )
          (h_upd): Identity()
          (x_upd): Identity()
          (skip_connection): Conv2d(768, 512, kernel_size=(1, 1), stride=(1, 1))
        )
        (1): AttentionBlock(
          (norm): GroupNorm32(32, 512, eps=1e-05, affine=True)
          (qkv): Conv1d(512, 1536, kernel_size=(1,), stride=(1,))
          (attention): QKVAttentionLegacy()
          (proj_out): Conv1d(512, 512, kernel_size=(1,), stride=(1,))
        )
        (2): ResBlock(
          (in_layers): Sequential(
            (0): GroupNorm32(32, 512, eps=1e-05, affine=True)
            (1): SiLU()
            (2): Conv2d(512, 512, kernel_size=(3, 3), stride=(1, 1), padding=(1, 1))
          )
          (h_upd): Upsample()
          (x_upd): Upsample()
          (skip_connection): Identity()
        )
      )
      (9): TimestepEmbedSequential(
        (0): ResBlock(
          (in_layers): Sequential(
            (0): GroupNorm32(32, 768, eps=1e-05, affine=True)
            (1): SiLU()
            (2): Conv2d(768, 256, kernel_size=(3, 3), stride=(1, 1), padding=(1, 1))
          )
          (h_upd): Identity()
          (x_upd): Identity()
          (skip_connection): Conv2d(768, 256, kernel_size=(1, 1), stride=(1, 1))
        )
      )
      (10): TimestepEmbedSequential(
        (0): ResBlock(
          (in_layers): Sequential(
            (0): GroupNorm32(32, 512, eps=1e-05, affine=True)
            (1): SiLU()
            (2): Conv2d(512, 256, kernel_size=(3, 3), stride=(1, 1), padding=(1, 1))
          )
          (h_upd): Identity()
          (x_upd): Identity()
          (skip_connection): Conv2d(512, 256, kernel_size=(1, 1), stride=(1, 1))
        )
      )
      (11): TimestepEmbedSequential(
        (0): ResBlock(
          (in_layers): Sequential(
            (0): GroupNorm32(32, 512, eps=1e-05, affine=True)
            (1): SiLU()
            (2): Conv2d(512, 256, kernel_size=(3, 3), stride=(1, 1), padding=(1, 1))
          )
          (h_upd): Identity()
          (x_upd): Identity()
          (skip_connection): Conv2d(512, 256, kernel_size=(1, 1), stride=(1, 1))
        )
        (1): ResBlock(
          (in_layers): Sequential(
            (0): GroupNorm32(32, 256, eps=1e-05, affine=True)
            (1): SiLU()
            (2): Conv2d(256, 256, kernel_size=(3, 3), stride=(1, 1), padding=(1, 1))
          )
          (h_upd): Upsample()
          (x_upd): Upsample()
          (skip_connection): Identity()
        )
      )
      (12): TimestepEmbedSequential(
        (0): ResBlock(
          (in_layers): Sequential(
            (0): GroupNorm32(32, 512, eps=1e-05, affine=True)
            (1): SiLU()
            (2): Conv2d(512, 256, kernel_size=(3, 3), stride=(1, 1), padding=(1, 1))
          )
          (h_upd): Identity()
          (x_upd): Identity()
          (skip_connection): Conv2d(512, 256, kernel_size=(1, 1), stride=(1, 1))
        )
      )
      (13): TimestepEmbedSequential(
        (0): ResBlock(
          (in_layers): Sequential(
            (0): GroupNorm32(32, 512, eps=1e-05, affine=True)
            (1): SiLU()
            (2): Conv2d(512, 256, kernel_size=(3, 3), stride=(1, 1), padding=(1, 1))
          )
          (h_upd): Identity()
          (x_upd): Identity()
          (skip_connection): Conv2d(512, 256, kernel_size=(1, 1), stride=(1, 1))
        )
      )
      (14): TimestepEmbedSequential(
        (0): ResBlock(
          (in_layers): Sequential(
            (0): GroupNorm32(32, 384, eps=1e-05, affine=True)
            (1): SiLU()
            (2): Conv2d(384, 256, kernel_size=(3, 3), stride=(1, 1), padding=(1, 1))
          )
          (h_upd): Identity()
          (x_upd): Identity()
          (skip_connection): Conv2d(384, 256, kernel_size=(1, 1), stride=(1, 1))
        )
        (1): ResBlock(
          (in_layers): Sequential(
            (0): GroupNorm32(32, 256, eps=1e-05, affine=True)
            (1): SiLU()
            (2): Conv2d(256, 256, kernel_size=(3, 3), stride=(1, 1), padding=(1, 1))
          )
          (h_upd): Upsample()
          (x_upd): Upsample()
          (skip_connection): Identity()
        )
      )
      (15): TimestepEmbedSequential(
        (0): ResBlock(
          (in_layers): Sequential(
            (0): GroupNorm32(32, 384, eps=1e-05, affine=True)
            (1): SiLU()
            (2): Conv2d(384, 128, kernel_size=(3, 3), stride=(1, 1), padding=(1, 1))
          )
          (h_upd): Identity()
          (x_upd): Identity()
          (skip_connection): Conv2d(384, 128, kernel_size=(1, 1), stride=(1, 1))
        )
      )
      (16): TimestepEmbedSequential(
        (0): ResBlock(
          (in_layers): Sequential(
            (0): GroupNorm32(32, 256, eps=1e-05, affine=True)
            (1): SiLU()
            (2): Conv2d(256, 128, kernel_size=(3, 3), stride=(1, 1), padding=(1, 1))
          )
          (h_upd): Identity()
          (x_upd): Identity()
          (skip_connection): Conv2d(256, 128, kernel_size=(1, 1), stride=(1, 1))
        )
      )
      (17): TimestepEmbedSequential(
        (0): ResBlock(
          (in_layers): Sequential(
            (0): GroupNorm32(32, 256, eps=1e-05, affine=True)
            (1): SiLU()
            (2): Conv2d(256, 128, kernel_size=(3, 3), stride=(1, 1), padding=(1, 1))
          )
          (h_upd): Identity()
          (x_upd): Identity()
          (skip_connection): Conv2d(256, 128, kernel_size=(1, 1), stride=(1, 1))
        )
        (1): ResBlock(
          (in_layers): Sequential(
            (0): GroupNorm32(32, 128, eps=1e-05, affine=True)
            (1): SiLU()
            (2): Conv2d(128, 128, kernel_size=(3, 3), stride=(1, 1), padding=(1, 1))
          )
          (h_upd): Upsample()
          (x_upd): Upsample()
          (skip_connection): Identity()
        )
      )
      (18): TimestepEmbedSequential(
        (0): ResBlock(
          (in_layers): Sequential(
            (0): GroupNorm32(32, 256, eps=1e-05, affine=True)
            (1): SiLU()
            (2): Conv2d(256, 128, kernel_size=(3, 3), stride=(1, 1), padding=(1, 1))
          )
          (h_upd): Identity()
          (x_upd): Identity()
          (skip_connection): Conv2d(256, 128, kernel_size=(1, 1), stride=(1, 1))
        )
      )
      (19): TimestepEmbedSequential(
        (0): ResBlock(
          (in_layers): Sequential(
            (0): GroupNorm32(32, 256, eps=1e-05, affine=True)
            (1): SiLU()
            (2): Conv2d(256, 128, kernel_size=(3, 3), stride=(1, 1), padding=(1, 1))
          )
          (h_upd): Identity()
          (x_upd): Identity()
          (skip_connection): Conv2d(256, 128, kernel_size=(1, 1), stride=(1, 1))
        )
      )
      (20): TimestepEmbedSequential(
        (0): ResBlock(
          (in_layers): Sequential(
            (0): GroupNorm32(32, 256, eps=1e-05, affine=True)
            (1): SiLU()
            (2): Conv2d(256, 128, kernel_size=(3, 3), stride=(1, 1), padding=(1, 1))
          )
          (h_upd): Identity()
          (x_upd): Identity()
          (skip_connection): Conv2d(256, 128, kernel_size=(1, 1), stride=(1, 1))
        )
      )
    )
    (out): Sequential(
      (0): GroupNorm32(32, 128, eps=1e-05, affine=True)
      (1): SiLU()
      (2): Conv2d(128, 3, kernel_size=(3, 3), stride=(1, 1), padding=(1, 1))
    )
  )
)
Model params: 225.35 M
ckpt path: checkpoints/med256_autoenc_E2E_lbl/last.ckpt
local seed: 0
train data: 80000
val data: 80000
on train dataloader start ...
Training: -1it [00:00, ?it/s]Training:   0%|          | 0/20000 [00:00<00:00, 32263.88it/s]Epoch 0:   0%|          | 0/20000 [00:00<00:06, 2924.90it/s]  !!!!!!!!Got Y!!!!!!!!
…
