…
│    │    └─SiLU: 3-93                                  --
│    │    └─AdaptiveAvgPool2d: 3-94                     --
│    │    └─Conv2d: 3-95                                1,049,088
│    │    └─Flatten: 3-96                               --
================================================================================
Total params: 619,502,593
Trainable params: 619,502,593
Non-trainable params: 0
================================================================================
Model params: 590.80 M
LitModel(
  (model): BeatGANsAutoencModel(
    (time_embed): TimeStyleSeperateEmbed(
      (time_embed): Sequential(
        (0): Linear(in_features=128, out_features=512, bias=True)
        (1): SiLU()
        (2): Linear(in_features=512, out_features=512, bias=True)
      )
      (style): Identity()
    )
    (input_blocks): ModuleList(
      (0): TimestepEmbedSequential(
        (0): Conv2d(1, 128, kernel_size=(3, 3), stride=(1, 1), padding=(1, 1))
      )
      (1): TimestepEmbedSequential(
        (0): ResBlock(
          (in_layers): Sequential(
            (0): GroupNorm32(32, 128, eps=1e-05, affine=True)
            (1): SiLU()
            (2): Conv2d(128, 128, kernel_size=(3, 3), stride=(1, 1), padding=(1, 1))
          )
          (h_upd): Identity()
          (x_upd): Identity()
          (emb_layers): Sequential(
            (0): SiLU()
            (1): Linear(in_features=512, out_features=256, bias=True)
          )
          (cond_emb_layers): Sequential(
            (0): SiLU()
            (1): Linear(in_features=512, out_features=128, bias=True)
          )
          (out_layers): Sequential(
            (0): GroupNorm32(32, 128, eps=1e-05, affine=True)
            (1): SiLU()
            (2): Dropout(p=0.1, inplace=False)
            (3): Conv2d(128, 128, kernel_size=(3, 3), stride=(1, 1), padding=(1, 1))
          )
          (skip_connection): Identity()
        )
      )
      (2): TimestepEmbedSequential(
        (0): ResBlock(
          (in_layers): Sequential(
            (0): GroupNorm32(32, 128, eps=1e-05, affine=True)
            (1): SiLU()
            (2): Conv2d(128, 128, kernel_size=(3, 3), stride=(1, 1), padding=(1, 1))
          )
          (h_upd): Identity()
          (x_upd): Identity()
          (emb_layers): Sequential(
            (0): SiLU()
            (1): Linear(in_features=512, out_features=256, bias=True)
          )
          (cond_emb_layers): Sequential(
            (0): SiLU()
            (1): Linear(in_features=512, out_features=128, bias=True)
          )
          (out_layers): Sequential(
            (0): GroupNorm32(32, 128, eps=1e-05, affine=True)
            (1): SiLU()
            (2): Dropout(p=0.1, inplace=False)
            (3): Conv2d(128, 128, kernel_size=(3, 3), stride=(1, 1), padding=(1, 1))
          )
          (skip_connection): Identity()
        )
      )
      (3): TimestepEmbedSequential(
        (0): ResBlock(
          (in_layers): Sequential(
            (0): GroupNorm32(32, 128, eps=1e-05, affine=True)
            (1): SiLU()
            (2): Conv2d(128, 128, kernel_size=(3, 3), stride=(1, 1), padding=(1, 1))
          )
          (h_upd): Downsample(
            (op): AvgPool2d(kernel_size=2, stride=2, padding=0)
          )
          (x_upd): Downsample(
            (op): AvgPool2d(kernel_size=2, stride=2, padding=0)
          )
          (emb_layers): Sequential(
            (0): SiLU()
            (1): Linear(in_features=512, out_features=256, bias=True)
          )
          (cond_emb_layers): Sequential(
            (0): SiLU()
            (1): Linear(in_features=512, out_features=128, bias=True)
          )
          (out_layers): Sequential(
            (0): GroupNorm32(32, 128, eps=1e-05, affine=True)
            (1): SiLU()
            (2): Dropout(p=0.1, inplace=False)
            (3): Conv2d(128, 128, kernel_size=(3, 3), stride=(1, 1), padding=(1, 1))
          )
          (skip_connection): Identity()
        )
      )
      (4): TimestepEmbedSequential(
        (0): ResBlock(
          (in_layers): Sequential(
            (0): GroupNorm32(32, 128, eps=1e-05, affine=True)
            (1): SiLU()
            (2): Conv2d(128, 128, kernel_size=(3, 3), stride=(1, 1), padding=(1, 1))
          )
          (h_upd): Identity()
          (x_upd): Identity()
          (emb_layers): Sequential(
            (0): SiLU()
            (1): Linear(in_features=512, out_features=256, bias=True)
          )
          (cond_emb_layers): Sequential(
            (0): SiLU()
            (1): Linear(in_features=512, out_features=128, bias=True)
          )
          (out_layers): Sequential(
            (0): GroupNorm32(32, 128, eps=1e-05, affine=True)
            (1): SiLU()
            (2): Dropout(p=0.1, inplace=False)
            (3): Conv2d(128, 128, kernel_size=(3, 3), stride=(1, 1), padding=(1, 1))
          )
          (skip_connection): Identity()
        )
      )
      (5): TimestepEmbedSequential(
        (0): ResBlock(
          (in_layers): Sequential(
            (0): GroupNorm32(32, 128, eps=1e-05, affine=True)
            (1): SiLU()
            (2): Conv2d(128, 128, kernel_size=(3, 3), stride=(1, 1), padding=(1, 1))
          )
          (h_upd): Identity()
          (x_upd): Identity()
          (emb_layers): Sequential(
            (0): SiLU()
            (1): Linear(in_features=512, out_features=256, bias=True)
          )
          (cond_emb_layers): Sequential(
            (0): SiLU()
            (1): Linear(in_features=512, out_features=128, bias=True)
          )
          (out_layers): Sequential(
            (0): GroupNorm32(32, 128, eps=1e-05, affine=True)
            (1): SiLU()
            (2): Dropout(p=0.1, inplace=False)
            (3): Conv2d(128, 128, kernel_size=(3, 3), stride=(1, 1), padding=(1, 1))
          )
          (skip_connection): Identity()
        )
      )
      (6): TimestepEmbedSequential(
        (0): ResBlock(
          (in_layers): Sequential(
            (0): GroupNorm32(32, 128, eps=1e-05, affine=True)
            (1): SiLU()
            (2): Conv2d(128, 128, kernel_size=(3, 3), stride=(1, 1), padding=(1, 1))
          )
          (h_upd): Downsample(
            (op): AvgPool2d(kernel_size=2, stride=2, padding=0)
          )
          (x_upd): Downsample(
            (op): AvgPool2d(kernel_size=2, stride=2, padding=0)
          )
          (emb_layers): Sequential(
            (0): SiLU()
            (1): Linear(in_features=512, out_features=256, bias=True)
          )
          (cond_emb_layers): Sequential(
            (0): SiLU()
            (1): Linear(in_features=512, out_features=128, bias=True)
          )
          (out_layers): Sequential(
            (0): GroupNorm32(32, 128, eps=1e-05, affine=True)
            (1): SiLU()
            (2): Dropout(p=0.1, inplace=False)
            (3): Conv2d(128, 128, kernel_size=(3, 3), stride=(1, 1), padding=(1, 1))
          )
          (skip_connection): Identity()
        )
      )
      (7): TimestepEmbedSequential(
        (0): ResBlock(
          (in_layers): Sequential(
            (0): GroupNorm32(32, 128, eps=1e-05, affine=True)
            (1): SiLU()
            (2): Conv2d(128, 256, kernel_size=(3, 3), stride=(1, 1), padding=(1, 1))
          )
          (h_upd): Identity()
          (x_upd): Identity()
          (emb_layers): Sequential(
            (0): SiLU()
            (1): Linear(in_features=512, out_features=512, bias=True)
          )
          (cond_emb_layers): Sequential(
            (0): SiLU()
            (1): Linear(in_features=512, out_features=256, bias=True)
          )
          (out_layers): Sequential(
            (0): GroupNorm32(32, 256, eps=1e-05, affine=True)
            (1): SiLU()
            (2): Dropout(p=0.1, inplace=False)
            (3): Conv2d(256, 256, kernel_size=(3, 3), stride=(1, 1), padding=(1, 1))
          )
          (skip_connection): Conv2d(128, 256, kernel_size=(1, 1), stride=(1, 1))
        )
      )
      (8): TimestepEmbedSequential(
        (0): ResBlock(
          (in_layers): Sequential(
            (0): GroupNorm32(32, 256, eps=1e-05, affine=True)
            (1): SiLU()
            (2): Conv2d(256, 256, kernel_size=(3, 3), stride=(1, 1), padding=(1, 1))
          )
          (h_upd): Identity()
          (x_upd): Identity()
          (emb_layers): Sequential(
            (0): SiLU()
            (1): Linear(in_features=512, out_features=512, bias=True)
          )
          (cond_emb_layers): Sequential(
            (0): SiLU()
            (1): Linear(in_features=512, out_features=256, bias=True)
          )
          (out_layers): Sequential(
            (0): GroupNorm32(32, 256, eps=1e-05, affine=True)
            (1): SiLU()
            (2): Dropout(p=0.1, inplace=False)
            (3): Conv2d(256, 256, kernel_size=(3, 3), stride=(1, 1), padding=(1, 1))
          )
          (skip_connection): Identity()
        )
      )
      (9): TimestepEmbedSequential(
        (0): ResBlock(
          (in_layers): Sequential(
            (0): GroupNorm32(32, 256, eps=1e-05, affine=True)
            (1): SiLU()
            (2): Conv2d(256, 256, kernel_size=(3, 3), stride=(1, 1), padding=(1, 1))
          )
          (h_upd): Downsample(
            (op): AvgPool2d(kernel_size=2, stride=2, padding=0)
          )
          (x_upd): Downsample(
            (op): AvgPool2d(kernel_size=2, stride=2, padding=0)
          )
          (emb_layers): Sequential(
            (0): SiLU()
            (1): Linear(in_features=512, out_features=512, bias=True)
          )
          (cond_emb_layers): Sequential(
            (0): SiLU()
            (1): Linear(in_features=512, out_features=256, bias=True)
          )
          (out_layers): Sequential(
            (0): GroupNorm32(32, 256, eps=1e-05, affine=True)
            (1): SiLU()
            (2): Dropout(p=0.1, inplace=False)
            (3): Conv2d(256, 256, kernel_size=(3, 3), stride=(1, 1), padding=(1, 1))
          )
          (skip_connection): Identity()
        )
      )
      (10): TimestepEmbedSequential(
        (0): ResBlock(
          (in_layers): Sequential(
            (0): GroupNorm32(32, 256, eps=1e-05, affine=True)
            (1): SiLU()
            (2): Conv2d(256, 256, kernel_size=(3, 3), stride=(1, 1), padding=(1, 1))
          )
          (h_upd): Identity()
          (x_upd): Identity()
          (emb_layers): Sequential(
            (0): SiLU()
            (1): Linear(in_features=512, out_features=512, bias=True)
          )
          (cond_emb_layers): Sequential(
            (0): SiLU()
            (1): Linear(in_features=512, out_features=256, bias=True)
          )
          (out_layers): Sequential(
            (0): GroupNorm32(32, 256, eps=1e-05, affine=True)
            (1): SiLU()
            (2): Dropout(p=0.1, inplace=False)
            (3): Conv2d(256, 256, kernel_size=(3, 3), stride=(1, 1), padding=(1, 1))
          )
          (skip_connection): Identity()
        )
      )
      (11): TimestepEmbedSequential(
        (0): ResBlock(
          (in_layers): Sequential(
            (0): GroupNorm32(32, 256, eps=1e-05, affine=True)
            (1): SiLU()
            (2): Conv2d(256, 256, kernel_size=(3, 3), stride=(1, 1), padding=(1, 1))
          )
          (h_upd): Identity()
          (x_upd): Identity()
          (emb_layers): Sequential(
            (0): SiLU()
            (1): Linear(in_features=512, out_features=512, bias=True)
          )
          (cond_emb_layers): Sequential(
            (0): SiLU()
            (1): Linear(in_features=512, out_features=256, bias=True)
          )
          (out_layers): Sequential(
            (0): GroupNorm32(32, 256, eps=1e-05, affine=True)
            (1): SiLU()
            (2): Dropout(p=0.1, inplace=False)
            (3): Conv2d(256, 256, kernel_size=(3, 3), stride=(1, 1), padding=(1, 1))
          )
          (skip_connection): Identity()
        )
      )
      (12): TimestepEmbedSequential(
        (0): ResBlock(
          (in_layers): Sequential(
            (0): GroupNorm32(32, 256, eps=1e-05, affine=True)
            (1): SiLU()
            (2): Conv2d(256, 256, kernel_size=(3, 3), stride=(1, 1), padding=(1, 1))
          )
          (h_upd): Downsample(
            (op): AvgPool2d(kernel_size=2, stride=2, padding=0)
          )
          (x_upd): Downsample(
            (op): AvgPool2d(kernel_size=2, stride=2, padding=0)
          )
          (emb_layers): Sequential(
            (0): SiLU()
            (1): Linear(in_features=512, out_features=512, bias=True)
          )
          (cond_emb_layers): Sequential(
            (0): SiLU()
            (1): Linear(in_features=512, out_features=256, bias=True)
          )
          (out_layers): Sequential(
            (0): GroupNorm32(32, 256, eps=1e-05, affine=True)
            (1): SiLU()
            (2): Dropout(p=0.1, inplace=False)
            (3): Conv2d(256, 256, kernel_size=(3, 3), stride=(1, 1), padding=(1, 1))
          )
          (skip_connection): Identity()
        )
      )
      (13): TimestepEmbedSequential(
        (0): ResBlock(
          (in_layers): Sequential(
            (0): GroupNorm32(32, 256, eps=1e-05, affine=True)
            (1): SiLU()
            (2): Conv2d(256, 512, kernel_size=(3, 3), stride=(1, 1), padding=(1, 1))
          )
          (h_upd): Identity()
          (x_upd): Identity()
          (emb_layers): Sequential(
            (0): SiLU()
            (1): Linear(in_features=512, out_features=1024, bias=True)
          )
          (cond_emb_layers): Sequential(
            (0): SiLU()
            (1): Linear(in_features=512, out_features=512, bias=True)
          )
          (out_layers): Sequential(
            (0): GroupNorm32(32, 512, eps=1e-05, affine=True)
            (1): SiLU()
            (2): Dropout(p=0.1, inplace=False)
            (3): Conv2d(512, 512, kernel_size=(3, 3), stride=(1, 1), padding=(1, 1))
          )
          (skip_connection): Conv2d(256, 512, kernel_size=(1, 1), stride=(1, 1))
        )
        (1): AttentionBlock(
          (norm): GroupNorm32(32, 512, eps=1e-05, affine=True)
          (qkv): Conv1d(512, 1536, kernel_size=(1,), stride=(1,))
          (attention): QKVAttentionLegacy()
          (proj_out): Conv1d(512, 512, kernel_size=(1,), stride=(1,))
        )
      )
      (14): TimestepEmbedSequential(
        (0): ResBlock(
          (in_layers): Sequential(
            (0): GroupNorm32(32, 512, eps=1e-05, affine=True)
            (1): SiLU()
            (2): Conv2d(512, 512, kernel_size=(3, 3), stride=(1, 1), padding=(1, 1))
          )
          (h_upd): Identity()
          (x_upd): Identity()
          (emb_layers): Sequential(
            (0): SiLU()
            (1): Linear(in_features=512, out_features=1024, bias=True)
          )
          (cond_emb_layers): Sequential(
            (0): SiLU()
            (1): Linear(in_features=512, out_features=512, bias=True)
          )
          (out_layers): Sequential(
            (0): GroupNorm32(32, 512, eps=1e-05, affine=True)
            (1): SiLU()
            (2): Dropout(p=0.1, inplace=False)
            (3): Conv2d(512, 512, kernel_size=(3, 3), stride=(1, 1), padding=(1, 1))
          )
          (skip_connection): Identity()
        )
        (1): AttentionBlock(
          (norm): GroupNorm32(32, 512, eps=1e-05, affine=True)
          (qkv): Conv1d(512, 1536, kernel_size=(1,), stride=(1,))
          (attention): QKVAttentionLegacy()
          (proj_out): Conv1d(512, 512, kernel_size=(1,), stride=(1,))
        )
      )
      (15): TimestepEmbedSequential(
        (0): ResBlock(
          (in_layers): Sequential(
            (0): GroupNorm32(32, 512, eps=1e-05, affine=True)
            (1): SiLU()
            (2): Conv2d(512, 512, kernel_size=(3, 3), stride=(1, 1), padding=(1, 1))
          )
          (h_upd): Downsample(
            (op): AvgPool2d(kernel_size=2, stride=2, padding=0)
          )
          (x_upd): Downsample(
            (op): AvgPool2d(kernel_size=2, stride=2, padding=0)
          )
          (emb_layers): Sequential(
            (0): SiLU()
            (1): Linear(in_features=512, out_features=1024, bias=True)
          )
          (cond_emb_layers): Sequential(
            (0): SiLU()
            (1): Linear(in_features=512, out_features=512, bias=True)
          )
          (out_layers): Sequential(
            (0): GroupNorm32(32, 512, eps=1e-05, affine=True)
            (1): SiLU()
            (2): Dropout(p=0.1, inplace=False)
            (3): Conv2d(512, 512, kernel_size=(3, 3), stride=(1, 1), padding=(1, 1))
          )
          (skip_connection): Identity()
        )
      )
      (16): TimestepEmbedSequential(
        (0): ResBlock(
          (in_layers): Sequential(
            (0): GroupNorm32(32, 512, eps=1e-05, affine=True)
            (1): SiLU()
            (2): Conv2d(512, 512, kernel_size=(3, 3), stride=(1, 1), padding=(1, 1))
          )
          (h_upd): Identity()
          (x_upd): Identity()
          (emb_layers): Sequential(
            (0): SiLU()
            (1): Linear(in_features=512, out_features=1024, bias=True)
          )
          (cond_emb_layers): Sequential(
            (0): SiLU()
            (1): Linear(in_features=512, out_features=512, bias=True)
          )
          (out_layers): Sequential(
            (0): GroupNorm32(32, 512, eps=1e-05, affine=True)
            (1): SiLU()
            (2): Dropout(p=0.1, inplace=False)
            (3): Conv2d(512, 512, kernel_size=(3, 3), stride=(1, 1), padding=(1, 1))
          )
          (skip_connection): Identity()
        )
      )
      (17): TimestepEmbedSequential(
        (0): ResBlock(
          (in_layers): Sequential(
            (0): GroupNorm32(32, 512, eps=1e-05, affine=True)
            (1): SiLU()
            (2): Conv2d(512, 512, kernel_size=(3, 3), stride=(1, 1), padding=(1, 1))
          )
          (h_upd): Identity()
          (x_upd): Identity()
          (emb_layers): Sequential(
            (0): SiLU()
            (1): Linear(in_features=512, out_features=1024, bias=True)
          )
          (cond_emb_layers): Sequential(
            (0): SiLU()
            (1): Linear(in_features=512, out_features=512, bias=True)
          )
          (out_layers): Sequential(
            (0): GroupNorm32(32, 512, eps=1e-05, affine=True)
            (1): SiLU()
            (2): Dropout(p=0.1, inplace=False)
            (3): Conv2d(512, 512, kernel_size=(3, 3), stride=(1, 1), padding=(1, 1))
          )
          (skip_connection): Identity()
        )
      )
    )
    (middle_block): TimestepEmbedSequential(
      (0): ResBlock(
        (in_layers): Sequential(
          (0): GroupNorm32(32, 512, eps=1e-05, affine=True)
          (1): SiLU()
          (2): Conv2d(512, 512, kernel_size=(3, 3), stride=(1, 1), padding=(1, 1))
        )
        (h_upd): Identity()
        (x_upd): Identity()
        (emb_layers): Sequential(
          (0): SiLU()
          (1): Linear(in_features=512, out_features=1024, bias=True)
        )
        (cond_emb_layers): Sequential(
          (0): SiLU()
          (1): Linear(in_features=512, out_features=512, bias=True)
        )
        (out_layers): Sequential(
          (0): GroupNorm32(32, 512, eps=1e-05, affine=True)
          (1): SiLU()
          (2): Dropout(p=0.1, inplace=False)
          (3): Conv2d(512, 512, kernel_size=(3, 3), stride=(1, 1), padding=(1, 1))
        )
        (skip_connection): Identity()
      )
      (1): AttentionBlock(
        (norm): GroupNorm32(32, 512, eps=1e-05, affine=True)
        (qkv): Conv1d(512, 1536, kernel_size=(1,), stride=(1,))
        (attention): QKVAttentionLegacy()
        (proj_out): Conv1d(512, 512, kernel_size=(1,), stride=(1,))
      )
      (2): ResBlock(
        (in_layers): Sequential(
          (0): GroupNorm32(32, 512, eps=1e-05, affine=True)
          (1): SiLU()
          (2): Conv2d(512, 512, kernel_size=(3, 3), stride=(1, 1), padding=(1, 1))
        )
        (h_upd): Identity()
        (x_upd): Identity()
        (emb_layers): Sequential(
          (0): SiLU()
          (1): Linear(in_features=512, out_features=1024, bias=True)
        )
        (cond_emb_layers): Sequential(
          (0): SiLU()
          (1): Linear(in_features=512, out_features=512, bias=True)
        )
        (out_layers): Sequential(
          (0): GroupNorm32(32, 512, eps=1e-05, affine=True)
          (1): SiLU()
          (2): Dropout(p=0.1, inplace=False)
          (3): Conv2d(512, 512, kernel_size=(3, 3), stride=(1, 1), padding=(1, 1))
        )
        (skip_connection): Identity()
      )
    )
    (output_blocks): ModuleList(
      (0): TimestepEmbedSequential(
        (0): ResBlock(
          (in_layers): Sequential(
            (0): GroupNorm32(32, 1024, eps=1e-05, affine=True)
            (1): SiLU()
            (2): Conv2d(1024, 512, kernel_size=(3, 3), stride=(1, 1), padding=(1, 1))
          )
          (h_upd): Identity()
          (x_upd): Identity()
          (emb_layers): Sequential(
            (0): SiLU()
            (1): Linear(in_features=512, out_features=1024, bias=True)
          )
          (cond_emb_layers): Sequential(
            (0): SiLU()
            (1): Linear(in_features=512, out_features=512, bias=True)
          )
          (out_layers): Sequential(
            (0): GroupNorm32(32, 512, eps=1e-05, affine=True)
            (1): SiLU()
            (2): Dropout(p=0.1, inplace=False)
            (3): Conv2d(512, 512, kernel_size=(3, 3), stride=(1, 1), padding=(1, 1))
          )
          (skip_connection): Conv2d(1024, 512, kernel_size=(1, 1), stride=(1, 1))
        )
      )
      (1): TimestepEmbedSequential(
        (0): ResBlock(
          (in_layers): Sequential(
            (0): GroupNorm32(32, 1024, eps=1e-05, affine=True)
            (1): SiLU()
            (2): Conv2d(1024, 512, kernel_size=(3, 3), stride=(1, 1), padding=(1, 1))
          )
          (h_upd): Identity()
          (x_upd): Identity()
          (emb_layers): Sequential(
            (0): SiLU()
            (1): Linear(in_features=512, out_features=1024, bias=True)
          )
          (cond_emb_layers): Sequential(
            (0): SiLU()
            (1): Linear(in_features=512, out_features=512, bias=True)
          )
          (out_layers): Sequential(
            (0): GroupNorm32(32, 512, eps=1e-05, affine=True)
            (1): SiLU()
            (2): Dropout(p=0.1, inplace=False)
            (3): Conv2d(512, 512, kernel_size=(3, 3), stride=(1, 1), padding=(1, 1))
          )
          (skip_connection): Conv2d(1024, 512, kernel_size=(1, 1), stride=(1, 1))
        )
      )
      (2): TimestepEmbedSequential(
        (0): ResBlock(
          (in_layers): Sequential(
            (0): GroupNorm32(32, 1024, eps=1e-05, affine=True)
            (1): SiLU()
            (2): Conv2d(1024, 512, kernel_size=(3, 3), stride=(1, 1), padding=(1, 1))
          )
          (h_upd): Identity()
          (x_upd): Identity()
          (emb_layers): Sequential(
            (0): SiLU()
            (1): Linear(in_features=512, out_features=1024, bias=True)
          )
          (cond_emb_layers): Sequential(
            (0): SiLU()
            (1): Linear(in_features=512, out_features=512, bias=True)
          )
          (out_layers): Sequential(
            (0): GroupNorm32(32, 512, eps=1e-05, affine=True)
            (1): SiLU()
            (2): Dropout(p=0.1, inplace=False)
            (3): Conv2d(512, 512, kernel_size=(3, 3), stride=(1, 1), padding=(1, 1))
          )
          (skip_connection): Conv2d(1024, 512, kernel_size=(1, 1), stride=(1, 1))
        )
        (1): ResBlock(
          (in_layers): Sequential(
            (0): GroupNorm32(32, 512, eps=1e-05, affine=True)
            (1): SiLU()
            (2): Conv2d(512, 512, kernel_size=(3, 3), stride=(1, 1), padding=(1, 1))
          )
          (h_upd): Upsample()
          (x_upd): Upsample()
          (emb_layers): Sequential(
            (0): SiLU()
            (1): Linear(in_features=512, out_features=1024, bias=True)
          )
          (cond_emb_layers): Sequential(
            (0): SiLU()
            (1): Linear(in_features=512, out_features=512, bias=True)
          )
          (out_layers): Sequential(
            (0): GroupNorm32(32, 512, eps=1e-05, affine=True)
            (1): SiLU()
            (2): Dropout(p=0.1, inplace=False)
            (3): Conv2d(512, 512, kernel_size=(3, 3), stride=(1, 1), padding=(1, 1))
          )
          (skip_connection): Identity()
        )
      )
      (3): TimestepEmbedSequential(
        (0): ResBlock(
          (in_layers): Sequential(
            (0): GroupNorm32(32, 1024, eps=1e-05, affine=True)
            (1): SiLU()
            (2): Conv2d(1024, 512, kernel_size=(3, 3), stride=(1, 1), padding=(1, 1))
          )
          (h_upd): Identity()
          (x_upd): Identity()
          (emb_layers): Sequential(
            (0): SiLU()
            (1): Linear(in_features=512, out_features=1024, bias=True)
          )
          (cond_emb_layers): Sequential(
            (0): SiLU()
            (1): Linear(in_features=512, out_features=512, bias=True)
          )
          (out_layers): Sequential(
            (0): GroupNorm32(32, 512, eps=1e-05, affine=True)
            (1): SiLU()
            (2): Dropout(p=0.1, inplace=False)
            (3): Conv2d(512, 512, kernel_size=(3, 3), stride=(1, 1), padding=(1, 1))
          )
          (skip_connection): Conv2d(1024, 512, kernel_size=(1, 1), stride=(1, 1))
        )
        (1): AttentionBlock(
          (norm): GroupNorm32(32, 512, eps=1e-05, affine=True)
          (qkv): Conv1d(512, 1536, kernel_size=(1,), stride=(1,))
          (attention): QKVAttentionLegacy()
          (proj_out): Conv1d(512, 512, kernel_size=(1,), stride=(1,))
        )
      )
      (4): TimestepEmbedSequential(
        (0): ResBlock(
          (in_layers): Sequential(
            (0): GroupNorm32(32, 1024, eps=1e-05, affine=True)
            (1): SiLU()
            (2): Conv2d(1024, 512, kernel_size=(3, 3), stride=(1, 1), padding=(1, 1))
          )
          (h_upd): Identity()
          (x_upd): Identity()
          (emb_layers): Sequential(
            (0): SiLU()
            (1): Linear(in_features=512, out_features=1024, bias=True)
          )
          (cond_emb_layers): Sequential(
            (0): SiLU()
            (1): Linear(in_features=512, out_features=512, bias=True)
          )
          (out_layers): Sequential(
            (0): GroupNorm32(32, 512, eps=1e-05, affine=True)
            (1): SiLU()
            (2): Dropout(p=0.1, inplace=False)
            (3): Conv2d(512, 512, kernel_size=(3, 3), stride=(1, 1), padding=(1, 1))
          )
          (skip_connection): Conv2d(1024, 512, kernel_size=(1, 1), stride=(1, 1))
        )
        (1): AttentionBlock(
          (norm): GroupNorm32(32, 512, eps=1e-05, affine=True)
          (qkv): Conv1d(512, 1536, kernel_size=(1,), stride=(1,))
          (attention): QKVAttentionLegacy()
          (proj_out): Conv1d(512, 512, kernel_size=(1,), stride=(1,))
        )
      )
      (5): TimestepEmbedSequential(
        (0): ResBlock(
          (in_layers): Sequential(
            (0): GroupNorm32(32, 768, eps=1e-05, affine=True)
            (1): SiLU()
            (2): Conv2d(768, 512, kernel_size=(3, 3), stride=(1, 1), padding=(1, 1))
          )
          (h_upd): Identity()
          (x_upd): Identity()
          (emb_layers): Sequential(
            (0): SiLU()
            (1): Linear(in_features=512, out_features=1024, bias=True)
          )
          (cond_emb_layers): Sequential(
            (0): SiLU()
            (1): Linear(in_features=512, out_features=512, bias=True)
          )
          (out_layers): Sequential(
            (0): GroupNorm32(32, 512, eps=1e-05, affine=True)
            (1): SiLU()
            (2): Dropout(p=0.1, inplace=False)
            (3): Conv2d(512, 512, kernel_size=(3, 3), stride=(1, 1), padding=(1, 1))
          )
          (skip_connection): Conv2d(768, 512, kernel_size=(1, 1), stride=(1, 1))
        )
        (1): AttentionBlock(
          (norm): GroupNorm32(32, 512, eps=1e-05, affine=True)
          (qkv): Conv1d(512, 1536, kernel_size=(1,), stride=(1,))
          (attention): QKVAttentionLegacy()
          (proj_out): Conv1d(512, 512, kernel_size=(1,), stride=(1,))
        )
        (2): ResBlock(
          (in_layers): Sequential(
            (0): GroupNorm32(32, 512, eps=1e-05, affine=True)
            (1): SiLU()
            (2): Conv2d(512, 512, kernel_size=(3, 3), stride=(1, 1), padding=(1, 1))
          )
          (h_upd): Upsample()
          (x_upd): Upsample()
          (emb_layers): Sequential(
            (0): SiLU()
            (1): Linear(in_features=512, out_features=1024, bias=True)
          )
          (cond_emb_layers): Sequential(
            (0): SiLU()
            (1): Linear(in_features=512, out_features=512, bias=True)
          )
          (out_layers): Sequential(
            (0): GroupNorm32(32, 512, eps=1e-05, affine=True)
            (1): SiLU()
            (2): Dropout(p=0.1, inplace=False)
            (3): Conv2d(512, 512, kernel_size=(3, 3), stride=(1, 1), padding=(1, 1))
          )
          (skip_connection): Identity()
        )
      )
      (6): TimestepEmbedSequential(
        (0): ResBlock(
          (in_layers): Sequential(
            (0): GroupNorm32(32, 768, eps=1e-05, affine=True)
            (1): SiLU()
            (2): Conv2d(768, 256, kernel_size=(3, 3), stride=(1, 1), padding=(1, 1))
          )
          (h_upd): Identity()
          (x_upd): Identity()
          (emb_layers): Sequential(
            (0): SiLU()
            (1): Linear(in_features=512, out_features=512, bias=True)
          )
          (cond_emb_layers): Sequential(
            (0): SiLU()
            (1): Linear(in_features=512, out_features=256, bias=True)
          )
          (out_layers): Sequential(
            (0): GroupNorm32(32, 256, eps=1e-05, affine=True)
            (1): SiLU()
            (2): Dropout(p=0.1, inplace=False)
            (3): Conv2d(256, 256, kernel_size=(3, 3), stride=(1, 1), padding=(1, 1))
          )
          (skip_connection): Conv2d(768, 256, kernel_size=(1, 1), stride=(1, 1))
        )
      )
      (7): TimestepEmbedSequential(
        (0): ResBlock(
          (in_layers): Sequential(
            (0): GroupNorm32(32, 512, eps=1e-05, affine=True)
            (1): SiLU()
            (2): Conv2d(512, 256, kernel_size=(3, 3), stride=(1, 1), padding=(1, 1))
          )
          (h_upd): Identity()
          (x_upd): Identity()
          (emb_layers): Sequential(
            (0): SiLU()
            (1): Linear(in_features=512, out_features=512, bias=True)
          )
          (cond_emb_layers): Sequential(
            (0): SiLU()
            (1): Linear(in_features=512, out_features=256, bias=True)
          )
          (out_layers): Sequential(
            (0): GroupNorm32(32, 256, eps=1e-05, affine=True)
            (1): SiLU()
            (2): Dropout(p=0.1, inplace=False)
            (3): Conv2d(256, 256, kernel_size=(3, 3), stride=(1, 1), padding=(1, 1))
          )
          (skip_connection): Conv2d(512, 256, kernel_size=(1, 1), stride=(1, 1))
        )
      )
      (8): TimestepEmbedSequential(
        (0): ResBlock(
          (in_layers): Sequential(
            (0): GroupNorm32(32, 512, eps=1e-05, affine=True)
            (1): SiLU()
            (2): Conv2d(512, 256, kernel_size=(3, 3), stride=(1, 1), padding=(1, 1))
          )
          (h_upd): Identity()
          (x_upd): Identity()
          (emb_layers): Sequential(
            (0): SiLU()
            (1): Linear(in_features=512, out_features=512, bias=True)
          )
          (cond_emb_layers): Sequential(
            (0): SiLU()
            (1): Linear(in_features=512, out_features=256, bias=True)
          )
          (out_layers): Sequential(
            (0): GroupNorm32(32, 256, eps=1e-05, affine=True)
            (1): SiLU()
            (2): Dropout(p=0.1, inplace=False)
            (3): Conv2d(256, 256, kernel_size=(3, 3), stride=(1, 1), padding=(1, 1))
          )
          (skip_connection): Conv2d(512, 256, kernel_size=(1, 1), stride=(1, 1))
        )
        (1): ResBlock(
          (in_layers): Sequential(
            (0): GroupNorm32(32, 256, eps=1e-05, affine=True)
            (1): SiLU()
            (2): Conv2d(256, 256, kernel_size=(3, 3), stride=(1, 1), padding=(1, 1))
          )
          (h_upd): Upsample()
          (x_upd): Upsample()
          (emb_layers): Sequential(
            (0): SiLU()
            (1): Linear(in_features=512, out_features=512, bias=True)
          )
          (cond_emb_layers): Sequential(
            (0): SiLU()
            (1): Linear(in_features=512, out_features=256, bias=True)
          )
          (out_layers): Sequential(
            (0): GroupNorm32(32, 256, eps=1e-05, affine=True)
            (1): SiLU()
            (2): Dropout(p=0.1, inplace=False)
            (3): Conv2d(256, 256, kernel_size=(3, 3), stride=(1, 1), padding=(1, 1))
          )
          (skip_connection): Identity()
        )
      )
      (9): TimestepEmbedSequential(
        (0): ResBlock(
          (in_layers): Sequential(
            (0): GroupNorm32(32, 512, eps=1e-05, affine=True)
            (1): SiLU()
            (2): Conv2d(512, 256, kernel_size=(3, 3), stride=(1, 1), padding=(1, 1))
          )
          (h_upd): Identity()
          (x_upd): Identity()
          (emb_layers): Sequential(
            (0): SiLU()
            (1): Linear(in_features=512, out_features=512, bias=True)
          )
          (cond_emb_layers): Sequential(
            (0): SiLU()
            (1): Linear(in_features=512, out_features=256, bias=True)
          )
          (out_layers): Sequential(
            (0): GroupNorm32(32, 256, eps=1e-05, affine=True)
            (1): SiLU()
            (2): Dropout(p=0.1, inplace=False)
            (3): Conv2d(256, 256, kernel_size=(3, 3), stride=(1, 1), padding=(1, 1))
          )
          (skip_connection): Conv2d(512, 256, kernel_size=(1, 1), stride=(1, 1))
        )
      )
      (10): TimestepEmbedSequential(
        (0): ResBlock(
          (in_layers): Sequential(
            (0): GroupNorm32(32, 512, eps=1e-05, affine=True)
            (1): SiLU()
            (2): Conv2d(512, 256, kernel_size=(3, 3), stride=(1, 1), padding=(1, 1))
          )
          (h_upd): Identity()
          (x_upd): Identity()
          (emb_layers): Sequential(
            (0): SiLU()
            (1): Linear(in_features=512, out_features=512, bias=True)
          )
          (cond_emb_layers): Sequential(
            (0): SiLU()
            (1): Linear(in_features=512, out_features=256, bias=True)
          )
          (out_layers): Sequential(
            (0): GroupNorm32(32, 256, eps=1e-05, affine=True)
            (1): SiLU()
            (2): Dropout(p=0.1, inplace=False)
            (3): Conv2d(256, 256, kernel_size=(3, 3), stride=(1, 1), padding=(1, 1))
          )
          (skip_connection): Conv2d(512, 256, kernel_size=(1, 1), stride=(1, 1))
        )
      )
      (11): TimestepEmbedSequential(
        (0): ResBlock(
          (in_layers): Sequential(
            (0): GroupNorm32(32, 384, eps=1e-05, affine=True)
            (1): SiLU()
            (2): Conv2d(384, 256, kernel_size=(3, 3), stride=(1, 1), padding=(1, 1))
          )
          (h_upd): Identity()
          (x_upd): Identity()
          (emb_layers): Sequential(
            (0): SiLU()
            (1): Linear(in_features=512, out_features=512, bias=True)
          )
          (cond_emb_layers): Sequential(
            (0): SiLU()
            (1): Linear(in_features=512, out_features=256, bias=True)
          )
          (out_layers): Sequential(
            (0): GroupNorm32(32, 256, eps=1e-05, affine=True)
            (1): SiLU()
            (2): Dropout(p=0.1, inplace=False)
            (3): Conv2d(256, 256, kernel_size=(3, 3), stride=(1, 1), padding=(1, 1))
          )
          (skip_connection): Conv2d(384, 256, kernel_size=(1, 1), stride=(1, 1))
        )
        (1): ResBlock(
          (in_layers): Sequential(
            (0): GroupNorm32(32, 256, eps=1e-05, affine=True)
            (1): SiLU()
            (2): Conv2d(256, 256, kernel_size=(3, 3), stride=(1, 1), padding=(1, 1))
          )
          (h_upd): Upsample()
          (x_upd): Upsample()
          (emb_layers): Sequential(
            (0): SiLU()
            (1): Linear(in_features=512, out_features=512, bias=True)
          )
          (cond_emb_layers): Sequential(
            (0): SiLU()
            (1): Linear(in_features=512, out_features=256, bias=True)
          )
          (out_layers): Sequential(
            (0): GroupNorm32(32, 256, eps=1e-05, affine=True)
            (1): SiLU()
            (2): Dropout(p=0.1, inplace=False)
            (3): Conv2d(256, 256, kernel_size=(3, 3), stride=(1, 1), padding=(1, 1))
          )
          (skip_connection): Identity()
        )
      )
      (12): TimestepEmbedSequential(
        (0): ResBlock(
          (in_layers): Sequential(
            (0): GroupNorm32(32, 384, eps=1e-05, affine=True)
            (1): SiLU()
            (2): Conv2d(384, 128, kernel_size=(3, 3), stride=(1, 1), padding=(1, 1))
          )
          (h_upd): Identity()
          (x_upd): Identity()
          (emb_layers): Sequential(
            (0): SiLU()
            (1): Linear(in_features=512, out_features=256, bias=True)
          )
          (cond_emb_layers): Sequential(
            (0): SiLU()
            (1): Linear(in_features=512, out_features=128, bias=True)
          )
          (out_layers): Sequential(
            (0): GroupNorm32(32, 128, eps=1e-05, affine=True)
            (1): SiLU()
            (2): Dropout(p=0.1, inplace=False)
            (3): Conv2d(128, 128, kernel_size=(3, 3), stride=(1, 1), padding=(1, 1))
          )
          (skip_connection): Conv2d(384, 128, kernel_size=(1, 1), stride=(1, 1))
        )
      )
      (13): TimestepEmbedSequential(
        (0): ResBlock(
          (in_layers): Sequential(
            (0): GroupNorm32(32, 256, eps=1e-05, affine=True)
            (1): SiLU()
            (2): Conv2d(256, 128, kernel_size=(3, 3), stride=(1, 1), padding=(1, 1))
          )
          (h_upd): Identity()
          (x_upd): Identity()
          (emb_layers): Sequential(
            (0): SiLU()
            (1): Linear(in_features=512, out_features=256, bias=True)
          )
          (cond_emb_layers): Sequential(
            (0): SiLU()
            (1): Linear(in_features=512, out_features=128, bias=True)
          )
          (out_layers): Sequential(
            (0): GroupNorm32(32, 128, eps=1e-05, affine=True)
            (1): SiLU()
            (2): Dropout(p=0.1, inplace=False)
            (3): Conv2d(128, 128, kernel_size=(3, 3), stride=(1, 1), padding=(1, 1))
          )
          (skip_connection): Conv2d(256, 128, kernel_size=(1, 1), stride=(1, 1))
        )
      )
      (14): TimestepEmbedSequential(
        (0): ResBlock(
          (in_layers): Sequential(
            (0): GroupNorm32(32, 256, eps=1e-05, affine=True)
            (1): SiLU()
            (2): Conv2d(256, 128, kernel_size=(3, 3), stride=(1, 1), padding=(1, 1))
          )
          (h_upd): Identity()
          (x_upd): Identity()
          (emb_layers): Sequential(
            (0): SiLU()
            (1): Linear(in_features=512, out_features=256, bias=True)
          )
          (cond_emb_layers): Sequential(
            (0): SiLU()
            (1): Linear(in_features=512, out_features=128, bias=True)
          )
          (out_layers): Sequential(
            (0): GroupNorm32(32, 128, eps=1e-05, affine=True)
            (1): SiLU()
            (2): Dropout(p=0.1, inplace=False)
            (3): Conv2d(128, 128, kernel_size=(3, 3), stride=(1, 1), padding=(1, 1))
          )
          (skip_connection): Conv2d(256, 128, kernel_size=(1, 1), stride=(1, 1))
        )
        (1): ResBlock(
          (in_layers): Sequential(
            (0): GroupNorm32(32, 128, eps=1e-05, affine=True)
            (1): SiLU()
            (2): Conv2d(128, 128, kernel_size=(3, 3), stride=(1, 1), padding=(1, 1))
          )
          (h_upd): Upsample()
          (x_upd): Upsample()
          (emb_layers): Sequential(
            (0): SiLU()
            (1): Linear(in_features=512, out_features=256, bias=True)
          )
          (cond_emb_layers): Sequential(
            (0): SiLU()
            (1): Linear(in_features=512, out_features=128, bias=True)
          )
          (out_layers): Sequential(
            (0): GroupNorm32(32, 128, eps=1e-05, affine=True)
            (1): SiLU()
            (2): Dropout(p=0.1, inplace=False)
            (3): Conv2d(128, 128, kernel_size=(3, 3), stride=(1, 1), padding=(1, 1))
          )
          (skip_connection): Identity()
        )
      )
      (15): TimestepEmbedSequential(
        (0): ResBlock(
          (in_layers): Sequential(
            (0): GroupNorm32(32, 256, eps=1e-05, affine=True)
            (1): SiLU()
            (2): Conv2d(256, 128, kernel_size=(3, 3), stride=(1, 1), padding=(1, 1))
          )
          (h_upd): Identity()
          (x_upd): Identity()
          (emb_layers): Sequential(
            (0): SiLU()
            (1): Linear(in_features=512, out_features=256, bias=True)
          )
          (cond_emb_layers): Sequential(
            (0): SiLU()
            (1): Linear(in_features=512, out_features=128, bias=True)
          )
          (out_layers): Sequential(
            (0): GroupNorm32(32, 128, eps=1e-05, affine=True)
            (1): SiLU()
            (2): Dropout(p=0.1, inplace=False)
            (3): Conv2d(128, 128, kernel_size=(3, 3), stride=(1, 1), padding=(1, 1))
          )
          (skip_connection): Conv2d(256, 128, kernel_size=(1, 1), stride=(1, 1))
        )
      )
      (16): TimestepEmbedSequential(
        (0): ResBlock(
          (in_layers): Sequential(
            (0): GroupNorm32(32, 256, eps=1e-05, affine=True)
            (1): SiLU()
            (2): Conv2d(256, 128, kernel_size=(3, 3), stride=(1, 1), padding=(1, 1))
          )
          (h_upd): Identity()
          (x_upd): Identity()
          (emb_layers): Sequential(
            (0): SiLU()
            (1): Linear(in_features=512, out_features=256, bias=True)
          )
          (cond_emb_layers): Sequential(
            (0): SiLU()
            (1): Linear(in_features=512, out_features=128, bias=True)
          )
          (out_layers): Sequential(
            (0): GroupNorm32(32, 128, eps=1e-05, affine=True)
            (1): SiLU()
            (2): Dropout(p=0.1, inplace=False)
            (3): Conv2d(128, 128, kernel_size=(3, 3), stride=(1, 1), padding=(1, 1))
          )
          (skip_connection): Conv2d(256, 128, kernel_size=(1, 1), stride=(1, 1))
        )
      )
      (17): TimestepEmbedSequential(
        (0): ResBlock(
          (in_layers): Sequential(
            (0): GroupNorm32(32, 256, eps=1e-05, affine=True)
            (1): SiLU()
            (2): Conv2d(256, 128, kernel_size=(3, 3), stride=(1, 1), padding=(1, 1))
          )
          (h_upd): Identity()
          (x_upd): Identity()
          (emb_layers): Sequential(
            (0): SiLU()
            (1): Linear(in_features=512, out_features=256, bias=True)
          )
          (cond_emb_layers): Sequential(
            (0): SiLU()
            (1): Linear(in_features=512, out_features=128, bias=True)
          )
          (out_layers): Sequential(
            (0): GroupNorm32(32, 128, eps=1e-05, affine=True)
            (1): SiLU()
            (2): Dropout(p=0.1, inplace=False)
            (3): Conv2d(128, 128, kernel_size=(3, 3), stride=(1, 1), padding=(1, 1))
          )
          (skip_connection): Conv2d(256, 128, kernel_size=(1, 1), stride=(1, 1))
        )
      )
    )
    (out): Sequential(
      (0): GroupNorm32(32, 128, eps=1e-05, affine=True)
      (1): SiLU()
      (2): Conv2d(128, 1, kernel_size=(3, 3), stride=(1, 1), padding=(1, 1))
    )
    (encoder): BeatGANsEncoderModel(
      (input_blocks): ModuleList(
        (0): TimestepEmbedSequential(
          (0): Conv2d(512, 512, kernel_size=(3, 3), stride=(1, 1), padding=(1, 1))
        )
        (1): TimestepEmbedSequential(
          (0): ResBlock(
            (in_layers): Sequential(
              (0): GroupNorm32(32, 512, eps=1e-05, affine=True)
              (1): SiLU()
              (2): Conv2d(512, 512, kernel_size=(3, 3), stride=(1, 1), padding=(1, 1))
            )
            (h_upd): Identity()
            (x_upd): Identity()
            (skip_connection): Identity()
          )
        )
        (2): TimestepEmbedSequential(
          (0): ResBlock(
            (in_layers): Sequential(
              (0): GroupNorm32(32, 512, eps=1e-05, affine=True)
              (1): SiLU()
              (2): Conv2d(512, 512, kernel_size=(3, 3), stride=(1, 1), padding=(1, 1))
            )
            (h_upd): Identity()
            (x_upd): Identity()
            (skip_connection): Identity()
          )
        )
        (3): TimestepEmbedSequential(
          (0): ResBlock(
            (in_layers): Sequential(
              (0): GroupNorm32(32, 512, eps=1e-05, affine=True)
              (1): SiLU()
              (2): Conv2d(512, 512, kernel_size=(3, 3), stride=(1, 1), padding=(1, 1))
            )
            (h_upd): Downsample(
              (op): AvgPool2d(kernel_size=2, stride=2, padding=0)
            )
            (x_upd): Downsample(
              (op): AvgPool2d(kernel_size=2, stride=2, padding=0)
            )
            (skip_connection): Identity()
          )
        )
        (4): TimestepEmbedSequential(
          (0): ResBlock(
            (in_layers): Sequential(
              (0): GroupNorm32(32, 512, eps=1e-05, affine=True)
              (1): SiLU()
              (2): Conv2d(512, 512, kernel_size=(3, 3), stride=(1, 1), padding=(1, 1))
            )
            (h_upd): Identity()
            (x_upd): Identity()
            (skip_connection): Identity()
          )
        )
        (5): TimestepEmbedSequential(
          (0): ResBlock(
            (in_layers): Sequential(
              (0): GroupNorm32(32, 512, eps=1e-05, affine=True)
              (1): SiLU()
              (2): Conv2d(512, 512, kernel_size=(3, 3), stride=(1, 1), padding=(1, 1))
            )
            (h_upd): Identity()
            (x_upd): Identity()
            (skip_connection): Identity()
          )
        )
        (6): TimestepEmbedSequential(
          (0): ResBlock(
            (in_layers): Sequential(
              (0): GroupNorm32(32, 512, eps=1e-05, affine=True)
              (1): SiLU()
              (2): Conv2d(512, 512, kernel_size=(3, 3), stride=(1, 1), padding=(1, 1))
            )
            (h_upd): Downsample(
              (op): AvgPool2d(kernel_size=2, stride=2, padding=0)
            )
            (x_upd): Downsample(
              (op): AvgPool2d(kernel_size=2, stride=2, padding=0)
            )
            (skip_connection): Identity()
          )
        )
        (7): TimestepEmbedSequential(
          (0): ResBlock(
            (in_layers): Sequential(
              (0): GroupNorm32(32, 512, eps=1e-05, affine=True)
              (1): SiLU()
              (2): Conv2d(512, 1024, kernel_size=(3, 3), stride=(1, 1), padding=(1, 1))
            )
            (h_upd): Identity()
            (x_upd): Identity()
            (skip_connection): Conv2d(512, 1024, kernel_size=(1, 1), stride=(1, 1))
          )
        )
        (8): TimestepEmbedSequential(
          (0): ResBlock(
            (in_layers): Sequential(
              (0): GroupNorm32(32, 1024, eps=1e-05, affine=True)
              (1): SiLU()
              (2): Conv2d(1024, 1024, kernel_size=(3, 3), stride=(1, 1), padding=(1, 1))
            )
            (h_upd): Identity()
            (x_upd): Identity()
            (skip_connection): Identity()
          )
        )
        (9): TimestepEmbedSequential(
          (0): ResBlock(
            (in_layers): Sequential(
              (0): GroupNorm32(32, 1024, eps=1e-05, affine=True)
              (1): SiLU()
              (2): Conv2d(1024, 1024, kernel_size=(3, 3), stride=(1, 1), padding=(1, 1))
            )
            (h_upd): Downsample(
              (op): AvgPool2d(kernel_size=2, stride=2, padding=0)
            )
            (x_upd): Downsample(
              (op): AvgPool2d(kernel_size=2, stride=2, padding=0)
            )
            (skip_connection): Identity()
          )
        )
        (10): TimestepEmbedSequential(
          (0): ResBlock(
            (in_layers): Sequential(
              (0): GroupNorm32(32, 1024, eps=1e-05, affine=True)
              (1): SiLU()
              (2): Conv2d(1024, 1024, kernel_size=(3, 3), stride=(1, 1), padding=(1, 1))
            )
            (h_upd): Identity()
            (x_upd): Identity()
            (skip_connection): Identity()
          )
        )
        (11): TimestepEmbedSequential(
          (0): ResBlock(
            (in_layers): Sequential(
              (0): GroupNorm32(32, 1024, eps=1e-05, affine=True)
              (1): SiLU()
              (2): Conv2d(1024, 1024, kernel_size=(3, 3), stride=(1, 1), padding=(1, 1))
            )
            (h_upd): Identity()
            (x_upd): Identity()
            (skip_connection): Identity()
          )
        )
        (12): TimestepEmbedSequential(
          (0): ResBlock(
            (in_layers): Sequential(
              (0): GroupNorm32(32, 1024, eps=1e-05, affine=True)
              (1): SiLU()
              (2): Conv2d(1024, 1024, kernel_size=(3, 3), stride=(1, 1), padding=(1, 1))
            )
            (h_upd): Downsample(
              (op): AvgPool2d(kernel_size=2, stride=2, padding=0)
            )
            (x_upd): Downsample(
              (op): AvgPool2d(kernel_size=2, stride=2, padding=0)
            )
            (skip_connection): Identity()
          )
        )
        (13): TimestepEmbedSequential(
          (0): ResBlock(
            (in_layers): Sequential(
              (0): GroupNorm32(32, 1024, eps=1e-05, affine=True)
              (1): SiLU()
              (2): Conv2d(1024, 2048, kernel_size=(3, 3), stride=(1, 1), padding=(1, 1))
            )
            (h_upd): Identity()
            (x_upd): Identity()
            (skip_connection): Conv2d(1024, 2048, kernel_size=(1, 1), stride=(1, 1))
          )
          (1): AttentionBlock(
            (norm): GroupNorm32(32, 2048, eps=1e-05, affine=True)
            (qkv): Conv1d(2048, 6144, kernel_size=(1,), stride=(1,))
            (attention): QKVAttentionLegacy()
            (proj_out): Conv1d(2048, 2048, kernel_size=(1,), stride=(1,))
          )
        )
        (14): TimestepEmbedSequential(
          (0): ResBlock(
            (in_layers): Sequential(
              (0): GroupNorm32(32, 2048, eps=1e-05, affine=True)
              (1): SiLU()
              (2): Conv2d(2048, 2048, kernel_size=(3, 3), stride=(1, 1), padding=(1, 1))
            )
            (h_upd): Identity()
            (x_upd): Identity()
            (skip_connection): Identity()
          )
          (1): AttentionBlock(
            (norm): GroupNorm32(32, 2048, eps=1e-05, affine=True)
            (qkv): Conv1d(2048, 6144, kernel_size=(1,), stride=(1,))
            (attention): QKVAttentionLegacy()
            (proj_out): Conv1d(2048, 2048, kernel_size=(1,), stride=(1,))
          )
        )
        (15): TimestepEmbedSequential(
          (0): ResBlock(
            (in_layers): Sequential(
              (0): GroupNorm32(32, 2048, eps=1e-05, affine=True)
              (1): SiLU()
              (2): Conv2d(2048, 2048, kernel_size=(3, 3), stride=(1, 1), padding=(1, 1))
            )
            (h_upd): Downsample(
              (op): AvgPool2d(kernel_size=2, stride=2, padding=0)
            )
            (x_upd): Downsample(
              (op): AvgPool2d(kernel_size=2, stride=2, padding=0)
            )
            (skip_connection): Identity()
          )
        )
        (16): TimestepEmbedSequential(
          (0): ResBlock(
            (in_layers): Sequential(
              (0): GroupNorm32(32, 2048, eps=1e-05, affine=True)
              (1): SiLU()
              (2): Conv2d(2048, 2048, kernel_size=(3, 3), stride=(1, 1), padding=(1, 1))
            )
            (h_upd): Identity()
            (x_upd): Identity()
            (skip_connection): Identity()
          )
        )
        (17): TimestepEmbedSequential(
          (0): ResBlock(
            (in_layers): Sequential(
              (0): GroupNorm32(32, 2048, eps=1e-05, affine=True)
              (1): SiLU()
              (2): Conv2d(2048, 2048, kernel_size=(3, 3), stride=(1, 1), padding=(1, 1))
            )
            (h_upd): Identity()
            (x_upd): Identity()
            (skip_connection): Identity()
          )
        )
        (18): TimestepEmbedSequential(
          (0): ResBlock(
            (in_layers): Sequential(
              (0): GroupNorm32(32, 2048, eps=1e-05, affine=True)
              (1): SiLU()
              (2): Conv2d(2048, 2048, kernel_size=(3, 3), stride=(1, 1), padding=(1, 1))
            )
            (h_upd): Downsample(
              (op): AvgPool2d(kernel_size=2, stride=2, padding=0)
            )
            (x_upd): Downsample(
              (op): AvgPool2d(kernel_size=2, stride=2, padding=0)
            )
            (skip_connection): Identity()
          )
        )
        (19): TimestepEmbedSequential(
          (0): ResBlock(
            (in_layers): Sequential(
              (0): GroupNorm32(32, 2048, eps=1e-05, affine=True)
              (1): SiLU()
              (2): Conv2d(2048, 2048, kernel_size=(3, 3), stride=(1, 1), padding=(1, 1))
            )
            (h_upd): Identity()
            (x_upd): Identity()
            (skip_connection): Identity()
          )
        )
        (20): TimestepEmbedSequential(
          (0): ResBlock(
            (in_layers): Sequential(
              (0): GroupNorm32(32, 2048, eps=1e-05, affine=True)
              (1): SiLU()
              (2): Conv2d(2048, 2048, kernel_size=(3, 3), stride=(1, 1), padding=(1, 1))
            )
            (h_upd): Identity()
            (x_upd): Identity()
            (skip_connection): Identity()
          )
        )
      )
      (middle_block): TimestepEmbedSequential(
        (0): ResBlock(
          (in_layers): Sequential(
            (0): GroupNorm32(32, 2048, eps=1e-05, affine=True)
            (1): SiLU()
            (2): Conv2d(2048, 2048, kernel_size=(3, 3), stride=(1, 1), padding=(1, 1))
          )
          (h_upd): Identity()
          (x_upd): Identity()
          (skip_connection): Identity()
        )
        (1): AttentionBlock(
          (norm): GroupNorm32(32, 2048, eps=1e-05, affine=True)
          (qkv): Conv1d(2048, 6144, kernel_size=(1,), stride=(1,))
          (attention): QKVAttentionLegacy()
          (proj_out): Conv1d(2048, 2048, kernel_size=(1,), stride=(1,))
        )
        (2): ResBlock(
          (in_layers): Sequential(
            (0): GroupNorm32(32, 2048, eps=1e-05, affine=True)
            (1): SiLU()
            (2): Conv2d(2048, 2048, kernel_size=(3, 3), stride=(1, 1), padding=(1, 1))
          )
          (h_upd): Identity()
          (x_upd): Identity()
          (skip_connection): Identity()
        )
      )
      (out): Sequential(
        (0): GroupNorm32(32, 2048, eps=1e-05, affine=True)
        (1): SiLU()
        (2): AdaptiveAvgPool2d(output_size=(1, 1))
        (3): Conv2d(2048, 512, kernel_size=(1, 1), stride=(1, 1))
        (4): Flatten(start_dim=1, end_dim=-1)
      )
    )
  )
  (ema_model): BeatGANsAutoencModel(
    (time_embed): TimeStyleSeperateEmbed(
      (time_embed): Sequential(
        (0): Linear(in_features=128, out_features=512, bias=True)
        (1): SiLU()
        (2): Linear(in_features=512, out_features=512, bias=True)
      )
      (style): Identity()
    )
    (input_blocks): ModuleList(
      (0): TimestepEmbedSequential(
        (0): Conv2d(1, 128, kernel_size=(3, 3), stride=(1, 1), padding=(1, 1))
      )
      (1): TimestepEmbedSequential(
        (0): ResBlock(
          (in_layers): Sequential(
            (0): GroupNorm32(32, 128, eps=1e-05, affine=True)
            (1): SiLU()
            (2): Conv2d(128, 128, kernel_size=(3, 3), stride=(1, 1), padding=(1, 1))
          )
          (h_upd): Identity()
          (x_upd): Identity()
          (emb_layers): Sequential(
            (0): SiLU()
            (1): Linear(in_features=512, out_features=256, bias=True)
          )
          (cond_emb_layers): Sequential(
            (0): SiLU()
            (1): Linear(in_features=512, out_features=128, bias=True)
          )
          (out_layers): Sequential(
            (0): GroupNorm32(32, 128, eps=1e-05, affine=True)
            (1): SiLU()
            (2): Dropout(p=0.1, inplace=False)
            (3): Conv2d(128, 128, kernel_size=(3, 3), stride=(1, 1), padding=(1, 1))
          )
          (skip_connection): Identity()
        )
      )
      (2): TimestepEmbedSequential(
        (0): ResBlock(
          (in_layers): Sequential(
            (0): GroupNorm32(32, 128, eps=1e-05, affine=True)
            (1): SiLU()
            (2): Conv2d(128, 128, kernel_size=(3, 3), stride=(1, 1), padding=(1, 1))
          )
          (h_upd): Identity()
          (x_upd): Identity()
          (emb_layers): Sequential(
            (0): SiLU()
            (1): Linear(in_features=512, out_features=256, bias=True)
          )
          (cond_emb_layers): Sequential(
            (0): SiLU()
            (1): Linear(in_features=512, out_features=128, bias=True)
          )
          (out_layers): Sequential(
            (0): GroupNorm32(32, 128, eps=1e-05, affine=True)
            (1): SiLU()
            (2): Dropout(p=0.1, inplace=False)
            (3): Conv2d(128, 128, kernel_size=(3, 3), stride=(1, 1), padding=(1, 1))
          )
          (skip_connection): Identity()
        )
      )
      (3): TimestepEmbedSequential(
        (0): ResBlock(
          (in_layers): Sequential(
            (0): GroupNorm32(32, 128, eps=1e-05, affine=True)
            (1): SiLU()
            (2): Conv2d(128, 128, kernel_size=(3, 3), stride=(1, 1), padding=(1, 1))
          )
          (h_upd): Downsample(
            (op): AvgPool2d(kernel_size=2, stride=2, padding=0)
          )
          (x_upd): Downsample(
            (op): AvgPool2d(kernel_size=2, stride=2, padding=0)
          )
          (emb_layers): Sequential(
            (0): SiLU()
            (1): Linear(in_features=512, out_features=256, bias=True)
          )
          (cond_emb_layers): Sequential(
            (0): SiLU()
            (1): Linear(in_features=512, out_features=128, bias=True)
          )
          (out_layers): Sequential(
            (0): GroupNorm32(32, 128, eps=1e-05, affine=True)
            (1): SiLU()
            (2): Dropout(p=0.1, inplace=False)
            (3): Conv2d(128, 128, kernel_size=(3, 3), stride=(1, 1), padding=(1, 1))
          )
          (skip_connection): Identity()
        )
      )
      (4): TimestepEmbedSequential(
        (0): ResBlock(
          (in_layers): Sequential(
            (0): GroupNorm32(32, 128, eps=1e-05, affine=True)
            (1): SiLU()
            (2): Conv2d(128, 128, kernel_size=(3, 3), stride=(1, 1), padding=(1, 1))
          )
          (h_upd): Identity()
          (x_upd): Identity()
          (emb_layers): Sequential(
            (0): SiLU()
            (1): Linear(in_features=512, out_features=256, bias=True)
          )
          (cond_emb_layers): Sequential(
            (0): SiLU()
            (1): Linear(in_features=512, out_features=128, bias=True)
          )
          (out_layers): Sequential(
            (0): GroupNorm32(32, 128, eps=1e-05, affine=True)
            (1): SiLU()
            (2): Dropout(p=0.1, inplace=False)
            (3): Conv2d(128, 128, kernel_size=(3, 3), stride=(1, 1), padding=(1, 1))
          )
          (skip_connection): Identity()
        )
      )
      (5): TimestepEmbedSequential(
        (0): ResBlock(
          (in_layers): Sequential(
            (0): GroupNorm32(32, 128, eps=1e-05, affine=True)
            (1): SiLU()
            (2): Conv2d(128, 128, kernel_size=(3, 3), stride=(1, 1), padding=(1, 1))
          )
          (h_upd): Identity()
          (x_upd): Identity()
          (emb_layers): Sequential(
            (0): SiLU()
            (1): Linear(in_features=512, out_features=256, bias=True)
          )
          (cond_emb_layers): Sequential(
            (0): SiLU()
            (1): Linear(in_features=512, out_features=128, bias=True)
          )
          (out_layers): Sequential(
            (0): GroupNorm32(32, 128, eps=1e-05, affine=True)
            (1): SiLU()
            (2): Dropout(p=0.1, inplace=False)
            (3): Conv2d(128, 128, kernel_size=(3, 3), stride=(1, 1), padding=(1, 1))
          )
          (skip_connection): Identity()
        )
      )
      (6): TimestepEmbedSequential(
        (0): ResBlock(
          (in_layers): Sequential(
            (0): GroupNorm32(32, 128, eps=1e-05, affine=True)
            (1): SiLU()
            (2): Conv2d(128, 128, kernel_size=(3, 3), stride=(1, 1), padding=(1, 1))
          )
          (h_upd): Downsample(
            (op): AvgPool2d(kernel_size=2, stride=2, padding=0)
          )
          (x_upd): Downsample(
            (op): AvgPool2d(kernel_size=2, stride=2, padding=0)
          )
          (emb_layers): Sequential(
            (0): SiLU()
            (1): Linear(in_features=512, out_features=256, bias=True)
          )
          (cond_emb_layers): Sequential(
            (0): SiLU()
            (1): Linear(in_features=512, out_features=128, bias=True)
          )
          (out_layers): Sequential(
            (0): GroupNorm32(32, 128, eps=1e-05, affine=True)
            (1): SiLU()
            (2): Dropout(p=0.1, inplace=False)
            (3): Conv2d(128, 128, kernel_size=(3, 3), stride=(1, 1), padding=(1, 1))
          )
          (skip_connection): Identity()
        )
      )
      (7): TimestepEmbedSequential(
        (0): ResBlock(
          (in_layers): Sequential(
            (0): GroupNorm32(32, 128, eps=1e-05, affine=True)
            (1): SiLU()
            (2): Conv2d(128, 256, kernel_size=(3, 3), stride=(1, 1), padding=(1, 1))
          )
          (h_upd): Identity()
          (x_upd): Identity()
          (emb_layers): Sequential(
            (0): SiLU()
            (1): Linear(in_features=512, out_features=512, bias=True)
          )
          (cond_emb_layers): Sequential(
            (0): SiLU()
            (1): Linear(in_features=512, out_features=256, bias=True)
          )
          (out_layers): Sequential(
            (0): GroupNorm32(32, 256, eps=1e-05, affine=True)
            (1): SiLU()
            (2): Dropout(p=0.1, inplace=False)
            (3): Conv2d(256, 256, kernel_size=(3, 3), stride=(1, 1), padding=(1, 1))
          )
          (skip_connection): Conv2d(128, 256, kernel_size=(1, 1), stride=(1, 1))
        )
      )
      (8): TimestepEmbedSequential(
        (0): ResBlock(
          (in_layers): Sequential(
            (0): GroupNorm32(32, 256, eps=1e-05, affine=True)
            (1): SiLU()
            (2): Conv2d(256, 256, kernel_size=(3, 3), stride=(1, 1), padding=(1, 1))
          )
          (h_upd): Identity()
          (x_upd): Identity()
          (emb_layers): Sequential(
            (0): SiLU()
            (1): Linear(in_features=512, out_features=512, bias=True)
          )
          (cond_emb_layers): Sequential(
            (0): SiLU()
            (1): Linear(in_features=512, out_features=256, bias=True)
          )
          (out_layers): Sequential(
            (0): GroupNorm32(32, 256, eps=1e-05, affine=True)
            (1): SiLU()
            (2): Dropout(p=0.1, inplace=False)
            (3): Conv2d(256, 256, kernel_size=(3, 3), stride=(1, 1), padding=(1, 1))
          )
          (skip_connection): Identity()
        )
      )
      (9): TimestepEmbedSequential(
        (0): ResBlock(
          (in_layers): Sequential(
            (0): GroupNorm32(32, 256, eps=1e-05, affine=True)
            (1): SiLU()
            (2): Conv2d(256, 256, kernel_size=(3, 3), stride=(1, 1), padding=(1, 1))
          )
          (h_upd): Downsample(
            (op): AvgPool2d(kernel_size=2, stride=2, padding=0)
          )
          (x_upd): Downsample(
            (op): AvgPool2d(kernel_size=2, stride=2, padding=0)
          )
          (emb_layers): Sequential(
            (0): SiLU()
            (1): Linear(in_features=512, out_features=512, bias=True)
          )
          (cond_emb_layers): Sequential(
            (0): SiLU()
            (1): Linear(in_features=512, out_features=256, bias=True)
          )
          (out_layers): Sequential(
            (0): GroupNorm32(32, 256, eps=1e-05, affine=True)
            (1): SiLU()
            (2): Dropout(p=0.1, inplace=False)
            (3): Conv2d(256, 256, kernel_size=(3, 3), stride=(1, 1), padding=(1, 1))
          )
          (skip_connection): Identity()
        )
      )
      (10): TimestepEmbedSequential(
        (0): ResBlock(
          (in_layers): Sequential(
            (0): GroupNorm32(32, 256, eps=1e-05, affine=True)
            (1): SiLU()
            (2): Conv2d(256, 256, kernel_size=(3, 3), stride=(1, 1), padding=(1, 1))
          )
          (h_upd): Identity()
          (x_upd): Identity()
          (emb_layers): Sequential(
            (0): SiLU()
            (1): Linear(in_features=512, out_features=512, bias=True)
          )
          (cond_emb_layers): Sequential(
            (0): SiLU()
            (1): Linear(in_features=512, out_features=256, bias=True)
          )
          (out_layers): Sequential(
            (0): GroupNorm32(32, 256, eps=1e-05, affine=True)
            (1): SiLU()
            (2): Dropout(p=0.1, inplace=False)
            (3): Conv2d(256, 256, kernel_size=(3, 3), stride=(1, 1), padding=(1, 1))
          )
          (skip_connection): Identity()
        )
      )
      (11): TimestepEmbedSequential(
        (0): ResBlock(
          (in_layers): Sequential(
            (0): GroupNorm32(32, 256, eps=1e-05, affine=True)
            (1): SiLU()
            (2): Conv2d(256, 256, kernel_size=(3, 3), stride=(1, 1), padding=(1, 1))
          )
          (h_upd): Identity()
          (x_upd): Identity()
          (emb_layers): Sequential(
            (0): SiLU()
            (1): Linear(in_features=512, out_features=512, bias=True)
          )
          (cond_emb_layers): Sequential(
            (0): SiLU()
            (1): Linear(in_features=512, out_features=256, bias=True)
          )
          (out_layers): Sequential(
            (0): GroupNorm32(32, 256, eps=1e-05, affine=True)
            (1): SiLU()
            (2): Dropout(p=0.1, inplace=False)
            (3): Conv2d(256, 256, kernel_size=(3, 3), stride=(1, 1), padding=(1, 1))
          )
          (skip_connection): Identity()
        )
      )
      (12): TimestepEmbedSequential(
        (0): ResBlock(
          (in_layers): Sequential(
            (0): GroupNorm32(32, 256, eps=1e-05, affine=True)
            (1): SiLU()
            (2): Conv2d(256, 256, kernel_size=(3, 3), stride=(1, 1), padding=(1, 1))
          )
          (h_upd): Downsample(
            (op): AvgPool2d(kernel_size=2, stride=2, padding=0)
          )
          (x_upd): Downsample(
            (op): AvgPool2d(kernel_size=2, stride=2, padding=0)
          )
          (emb_layers): Sequential(
            (0): SiLU()
            (1): Linear(in_features=512, out_features=512, bias=True)
          )
          (cond_emb_layers): Sequential(
            (0): SiLU()
            (1): Linear(in_features=512, out_features=256, bias=True)
          )
          (out_layers): Sequential(
            (0): GroupNorm32(32, 256, eps=1e-05, affine=True)
            (1): SiLU()
            (2): Dropout(p=0.1, inplace=False)
            (3): Conv2d(256, 256, kernel_size=(3, 3), stride=(1, 1), padding=(1, 1))
          )
          (skip_connection): Identity()
        )
      )
      (13): TimestepEmbedSequential(
        (0): ResBlock(
          (in_layers): Sequential(
            (0): GroupNorm32(32, 256, eps=1e-05, affine=True)
            (1): SiLU()
            (2): Conv2d(256, 512, kernel_size=(3, 3), stride=(1, 1), padding=(1, 1))
          )
          (h_upd): Identity()
          (x_upd): Identity()
          (emb_layers): Sequential(
            (0): SiLU()
            (1): Linear(in_features=512, out_features=1024, bias=True)
          )
          (cond_emb_layers): Sequential(
            (0): SiLU()
            (1): Linear(in_features=512, out_features=512, bias=True)
          )
          (out_layers): Sequential(
            (0): GroupNorm32(32, 512, eps=1e-05, affine=True)
            (1): SiLU()
            (2): Dropout(p=0.1, inplace=False)
            (3): Conv2d(512, 512, kernel_size=(3, 3), stride=(1, 1), padding=(1, 1))
          )
          (skip_connection): Conv2d(256, 512, kernel_size=(1, 1), stride=(1, 1))
        )
        (1): AttentionBlock(
          (norm): GroupNorm32(32, 512, eps=1e-05, affine=True)
          (qkv): Conv1d(512, 1536, kernel_size=(1,), stride=(1,))
          (attention): QKVAttentionLegacy()
          (proj_out): Conv1d(512, 512, kernel_size=(1,), stride=(1,))
        )
      )
      (14): TimestepEmbedSequential(
        (0): ResBlock(
          (in_layers): Sequential(
            (0): GroupNorm32(32, 512, eps=1e-05, affine=True)
            (1): SiLU()
            (2): Conv2d(512, 512, kernel_size=(3, 3), stride=(1, 1), padding=(1, 1))
          )
          (h_upd): Identity()
          (x_upd): Identity()
          (emb_layers): Sequential(
            (0): SiLU()
            (1): Linear(in_features=512, out_features=1024, bias=True)
          )
          (cond_emb_layers): Sequential(
            (0): SiLU()
            (1): Linear(in_features=512, out_features=512, bias=True)
          )
          (out_layers): Sequential(
            (0): GroupNorm32(32, 512, eps=1e-05, affine=True)
            (1): SiLU()
            (2): Dropout(p=0.1, inplace=False)
            (3): Conv2d(512, 512, kernel_size=(3, 3), stride=(1, 1), padding=(1, 1))
          )
          (skip_connection): Identity()
        )
        (1): AttentionBlock(
          (norm): GroupNorm32(32, 512, eps=1e-05, affine=True)
          (qkv): Conv1d(512, 1536, kernel_size=(1,), stride=(1,))
          (attention): QKVAttentionLegacy()
          (proj_out): Conv1d(512, 512, kernel_size=(1,), stride=(1,))
        )
      )
      (15): TimestepEmbedSequential(
        (0): ResBlock(
          (in_layers): Sequential(
            (0): GroupNorm32(32, 512, eps=1e-05, affine=True)
            (1): SiLU()
            (2): Conv2d(512, 512, kernel_size=(3, 3), stride=(1, 1), padding=(1, 1))
          )
          (h_upd): Downsample(
            (op): AvgPool2d(kernel_size=2, stride=2, padding=0)
          )
          (x_upd): Downsample(
            (op): AvgPool2d(kernel_size=2, stride=2, padding=0)
          )
          (emb_layers): Sequential(
            (0): SiLU()
            (1): Linear(in_features=512, out_features=1024, bias=True)
          )
          (cond_emb_layers): Sequential(
            (0): SiLU()
            (1): Linear(in_features=512, out_features=512, bias=True)
          )
          (out_layers): Sequential(
            (0): GroupNorm32(32, 512, eps=1e-05, affine=True)
            (1): SiLU()
            (2): Dropout(p=0.1, inplace=False)
            (3): Conv2d(512, 512, kernel_size=(3, 3), stride=(1, 1), padding=(1, 1))
          )
          (skip_connection): Identity()
        )
      )
      (16): TimestepEmbedSequential(
        (0): ResBlock(
          (in_layers): Sequential(
            (0): GroupNorm32(32, 512, eps=1e-05, affine=True)
            (1): SiLU()
            (2): Conv2d(512, 512, kernel_size=(3, 3), stride=(1, 1), padding=(1, 1))
          )
          (h_upd): Identity()
          (x_upd): Identity()
          (emb_layers): Sequential(
            (0): SiLU()
            (1): Linear(in_features=512, out_features=1024, bias=True)
          )
          (cond_emb_layers): Sequential(
            (0): SiLU()
            (1): Linear(in_features=512, out_features=512, bias=True)
          )
          (out_layers): Sequential(
            (0): GroupNorm32(32, 512, eps=1e-05, affine=True)
            (1): SiLU()
            (2): Dropout(p=0.1, inplace=False)
            (3): Conv2d(512, 512, kernel_size=(3, 3), stride=(1, 1), padding=(1, 1))
          )
          (skip_connection): Identity()
        )
      )
      (17): TimestepEmbedSequential(
        (0): ResBlock(
          (in_layers): Sequential(
            (0): GroupNorm32(32, 512, eps=1e-05, affine=True)
            (1): SiLU()
            (2): Conv2d(512, 512, kernel_size=(3, 3), stride=(1, 1), padding=(1, 1))
          )
          (h_upd): Identity()
          (x_upd): Identity()
          (emb_layers): Sequential(
            (0): SiLU()
            (1): Linear(in_features=512, out_features=1024, bias=True)
          )
          (cond_emb_layers): Sequential(
            (0): SiLU()
            (1): Linear(in_features=512, out_features=512, bias=True)
          )
          (out_layers): Sequential(
            (0): GroupNorm32(32, 512, eps=1e-05, affine=True)
            (1): SiLU()
            (2): Dropout(p=0.1, inplace=False)
            (3): Conv2d(512, 512, kernel_size=(3, 3), stride=(1, 1), padding=(1, 1))
          )
          (skip_connection): Identity()
        )
      )
    )
    (middle_block): TimestepEmbedSequential(
      (0): ResBlock(
        (in_layers): Sequential(
          (0): GroupNorm32(32, 512, eps=1e-05, affine=True)
          (1): SiLU()
          (2): Conv2d(512, 512, kernel_size=(3, 3), stride=(1, 1), padding=(1, 1))
        )
        (h_upd): Identity()
        (x_upd): Identity()
        (emb_layers): Sequential(
          (0): SiLU()
          (1): Linear(in_features=512, out_features=1024, bias=True)
        )
        (cond_emb_layers): Sequential(
          (0): SiLU()
          (1): Linear(in_features=512, out_features=512, bias=True)
        )
        (out_layers): Sequential(
          (0): GroupNorm32(32, 512, eps=1e-05, affine=True)
          (1): SiLU()
          (2): Dropout(p=0.1, inplace=False)
          (3): Conv2d(512, 512, kernel_size=(3, 3), stride=(1, 1), padding=(1, 1))
        )
        (skip_connection): Identity()
      )
      (1): AttentionBlock(
        (norm): GroupNorm32(32, 512, eps=1e-05, affine=True)
        (qkv): Conv1d(512, 1536, kernel_size=(1,), stride=(1,))
        (attention): QKVAttentionLegacy()
        (proj_out): Conv1d(512, 512, kernel_size=(1,), stride=(1,))
      )
      (2): ResBlock(
        (in_layers): Sequential(
          (0): GroupNorm32(32, 512, eps=1e-05, affine=True)
          (1): SiLU()
          (2): Conv2d(512, 512, kernel_size=(3, 3), stride=(1, 1), padding=(1, 1))
        )
        (h_upd): Identity()
        (x_upd): Identity()
        (emb_layers): Sequential(
          (0): SiLU()
          (1): Linear(in_features=512, out_features=1024, bias=True)
        )
        (cond_emb_layers): Sequential(
          (0): SiLU()
          (1): Linear(in_features=512, out_features=512, bias=True)
        )
        (out_layers): Sequential(
          (0): GroupNorm32(32, 512, eps=1e-05, affine=True)
          (1): SiLU()
          (2): Dropout(p=0.1, inplace=False)
          (3): Conv2d(512, 512, kernel_size=(3, 3), stride=(1, 1), padding=(1, 1))
        )
        (skip_connection): Identity()
      )
    )
    (output_blocks): ModuleList(
      (0): TimestepEmbedSequential(
        (0): ResBlock(
          (in_layers): Sequential(
            (0): GroupNorm32(32, 1024, eps=1e-05, affine=True)
            (1): SiLU()
            (2): Conv2d(1024, 512, kernel_size=(3, 3), stride=(1, 1), padding=(1, 1))
          )
          (h_upd): Identity()
          (x_upd): Identity()
          (emb_layers): Sequential(
            (0): SiLU()
            (1): Linear(in_features=512, out_features=1024, bias=True)
          )
          (cond_emb_layers): Sequential(
            (0): SiLU()
            (1): Linear(in_features=512, out_features=512, bias=True)
          )
          (out_layers): Sequential(
            (0): GroupNorm32(32, 512, eps=1e-05, affine=True)
            (1): SiLU()
            (2): Dropout(p=0.1, inplace=False)
            (3): Conv2d(512, 512, kernel_size=(3, 3), stride=(1, 1), padding=(1, 1))
          )
          (skip_connection): Conv2d(1024, 512, kernel_size=(1, 1), stride=(1, 1))
        )
      )
      (1): TimestepEmbedSequential(
        (0): ResBlock(
          (in_layers): Sequential(
            (0): GroupNorm32(32, 1024, eps=1e-05, affine=True)
            (1): SiLU()
            (2): Conv2d(1024, 512, kernel_size=(3, 3), stride=(1, 1), padding=(1, 1))
          )
          (h_upd): Identity()
          (x_upd): Identity()
          (emb_layers): Sequential(
            (0): SiLU()
            (1): Linear(in_features=512, out_features=1024, bias=True)
          )
          (cond_emb_layers): Sequential(
            (0): SiLU()
            (1): Linear(in_features=512, out_features=512, bias=True)
          )
          (out_layers): Sequential(
            (0): GroupNorm32(32, 512, eps=1e-05, affine=True)
            (1): SiLU()
            (2): Dropout(p=0.1, inplace=False)
            (3): Conv2d(512, 512, kernel_size=(3, 3), stride=(1, 1), padding=(1, 1))
          )
          (skip_connection): Conv2d(1024, 512, kernel_size=(1, 1), stride=(1, 1))
        )
      )
      (2): TimestepEmbedSequential(
        (0): ResBlock(
          (in_layers): Sequential(
            (0): GroupNorm32(32, 1024, eps=1e-05, affine=True)
            (1): SiLU()
            (2): Conv2d(1024, 512, kernel_size=(3, 3), stride=(1, 1), padding=(1, 1))
          )
          (h_upd): Identity()
          (x_upd): Identity()
          (emb_layers): Sequential(
            (0): SiLU()
            (1): Linear(in_features=512, out_features=1024, bias=True)
          )
          (cond_emb_layers): Sequential(
            (0): SiLU()
            (1): Linear(in_features=512, out_features=512, bias=True)
          )
          (out_layers): Sequential(
            (0): GroupNorm32(32, 512, eps=1e-05, affine=True)
            (1): SiLU()
            (2): Dropout(p=0.1, inplace=False)
            (3): Conv2d(512, 512, kernel_size=(3, 3), stride=(1, 1), padding=(1, 1))
          )
          (skip_connection): Conv2d(1024, 512, kernel_size=(1, 1), stride=(1, 1))
        )
        (1): ResBlock(
          (in_layers): Sequential(
            (0): GroupNorm32(32, 512, eps=1e-05, affine=True)
            (1): SiLU()
            (2): Conv2d(512, 512, kernel_size=(3, 3), stride=(1, 1), padding=(1, 1))
          )
          (h_upd): Upsample()
          (x_upd): Upsample()
          (emb_layers): Sequential(
            (0): SiLU()
            (1): Linear(in_features=512, out_features=1024, bias=True)
          )
          (cond_emb_layers): Sequential(
            (0): SiLU()
            (1): Linear(in_features=512, out_features=512, bias=True)
          )
          (out_layers): Sequential(
            (0): GroupNorm32(32, 512, eps=1e-05, affine=True)
            (1): SiLU()
            (2): Dropout(p=0.1, inplace=False)
            (3): Conv2d(512, 512, kernel_size=(3, 3), stride=(1, 1), padding=(1, 1))
          )
          (skip_connection): Identity()
        )
      )
      (3): TimestepEmbedSequential(
        (0): ResBlock(
          (in_layers): Sequential(
            (0): GroupNorm32(32, 1024, eps=1e-05, affine=True)
            (1): SiLU()
            (2): Conv2d(1024, 512, kernel_size=(3, 3), stride=(1, 1), padding=(1, 1))
          )
          (h_upd): Identity()
          (x_upd): Identity()
          (emb_layers): Sequential(
            (0): SiLU()
            (1): Linear(in_features=512, out_features=1024, bias=True)
          )
          (cond_emb_layers): Sequential(
            (0): SiLU()
            (1): Linear(in_features=512, out_features=512, bias=True)
          )
          (out_layers): Sequential(
            (0): GroupNorm32(32, 512, eps=1e-05, affine=True)
            (1): SiLU()
            (2): Dropout(p=0.1, inplace=False)
            (3): Conv2d(512, 512, kernel_size=(3, 3), stride=(1, 1), padding=(1, 1))
          )
          (skip_connection): Conv2d(1024, 512, kernel_size=(1, 1), stride=(1, 1))
        )
        (1): AttentionBlock(
          (norm): GroupNorm32(32, 512, eps=1e-05, affine=True)
          (qkv): Conv1d(512, 1536, kernel_size=(1,), stride=(1,))
          (attention): QKVAttentionLegacy()
          (proj_out): Conv1d(512, 512, kernel_size=(1,), stride=(1,))
        )
      )
      (4): TimestepEmbedSequential(
        (0): ResBlock(
          (in_layers): Sequential(
            (0): GroupNorm32(32, 1024, eps=1e-05, affine=True)
            (1): SiLU()
            (2): Conv2d(1024, 512, kernel_size=(3, 3), stride=(1, 1), padding=(1, 1))
          )
          (h_upd): Identity()
          (x_upd): Identity()
          (emb_layers): Sequential(
            (0): SiLU()
            (1): Linear(in_features=512, out_features=1024, bias=True)
          )
          (cond_emb_layers): Sequential(
            (0): SiLU()
            (1): Linear(in_features=512, out_features=512, bias=True)
          )
          (out_layers): Sequential(
            (0): GroupNorm32(32, 512, eps=1e-05, affine=True)
            (1): SiLU()
            (2): Dropout(p=0.1, inplace=False)
            (3): Conv2d(512, 512, kernel_size=(3, 3), stride=(1, 1), padding=(1, 1))
          )
          (skip_connection): Conv2d(1024, 512, kernel_size=(1, 1), stride=(1, 1))
        )
        (1): AttentionBlock(
          (norm): GroupNorm32(32, 512, eps=1e-05, affine=True)
          (qkv): Conv1d(512, 1536, kernel_size=(1,), stride=(1,))
          (attention): QKVAttentionLegacy()
          (proj_out): Conv1d(512, 512, kernel_size=(1,), stride=(1,))
        )
      )
      (5): TimestepEmbedSequential(
        (0): ResBlock(
          (in_layers): Sequential(
            (0): GroupNorm32(32, 768, eps=1e-05, affine=True)
            (1): SiLU()
            (2): Conv2d(768, 512, kernel_size=(3, 3), stride=(1, 1), padding=(1, 1))
          )
          (h_upd): Identity()
          (x_upd): Identity()
          (emb_layers): Sequential(
            (0): SiLU()
            (1): Linear(in_features=512, out_features=1024, bias=True)
          )
          (cond_emb_layers): Sequential(
            (0): SiLU()
            (1): Linear(in_features=512, out_features=512, bias=True)
          )
          (out_layers): Sequential(
            (0): GroupNorm32(32, 512, eps=1e-05, affine=True)
            (1): SiLU()
            (2): Dropout(p=0.1, inplace=False)
            (3): Conv2d(512, 512, kernel_size=(3, 3), stride=(1, 1), padding=(1, 1))
          )
          (skip_connection): Conv2d(768, 512, kernel_size=(1, 1), stride=(1, 1))
        )
        (1): AttentionBlock(
          (norm): GroupNorm32(32, 512, eps=1e-05, affine=True)
          (qkv): Conv1d(512, 1536, kernel_size=(1,), stride=(1,))
          (attention): QKVAttentionLegacy()
          (proj_out): Conv1d(512, 512, kernel_size=(1,), stride=(1,))
        )
        (2): ResBlock(
          (in_layers): Sequential(
            (0): GroupNorm32(32, 512, eps=1e-05, affine=True)
            (1): SiLU()
            (2): Conv2d(512, 512, kernel_size=(3, 3), stride=(1, 1), padding=(1, 1))
          )
          (h_upd): Upsample()
          (x_upd): Upsample()
          (emb_layers): Sequential(
            (0): SiLU()
            (1): Linear(in_features=512, out_features=1024, bias=True)
          )
          (cond_emb_layers): Sequential(
            (0): SiLU()
            (1): Linear(in_features=512, out_features=512, bias=True)
          )
          (out_layers): Sequential(
            (0): GroupNorm32(32, 512, eps=1e-05, affine=True)
            (1): SiLU()
            (2): Dropout(p=0.1, inplace=False)
            (3): Conv2d(512, 512, kernel_size=(3, 3), stride=(1, 1), padding=(1, 1))
          )
          (skip_connection): Identity()
        )
      )
      (6): TimestepEmbedSequential(
        (0): ResBlock(
          (in_layers): Sequential(
            (0): GroupNorm32(32, 768, eps=1e-05, affine=True)
            (1): SiLU()
            (2): Conv2d(768, 256, kernel_size=(3, 3), stride=(1, 1), padding=(1, 1))
          )
          (h_upd): Identity()
          (x_upd): Identity()
          (emb_layers): Sequential(
            (0): SiLU()
            (1): Linear(in_features=512, out_features=512, bias=True)
          )
          (cond_emb_layers): Sequential(
            (0): SiLU()
            (1): Linear(in_features=512, out_features=256, bias=True)
          )
          (out_layers): Sequential(
            (0): GroupNorm32(32, 256, eps=1e-05, affine=True)
            (1): SiLU()
            (2): Dropout(p=0.1, inplace=False)
            (3): Conv2d(256, 256, kernel_size=(3, 3), stride=(1, 1), padding=(1, 1))
          )
          (skip_connection): Conv2d(768, 256, kernel_size=(1, 1), stride=(1, 1))
        )
      )
      (7): TimestepEmbedSequential(
        (0): ResBlock(
          (in_layers): Sequential(
            (0): GroupNorm32(32, 512, eps=1e-05, affine=True)
            (1): SiLU()
            (2): Conv2d(512, 256, kernel_size=(3, 3), stride=(1, 1), padding=(1, 1))
          )
          (h_upd): Identity()
          (x_upd): Identity()
          (emb_layers): Sequential(
            (0): SiLU()
            (1): Linear(in_features=512, out_features=512, bias=True)
          )
          (cond_emb_layers): Sequential(
            (0): SiLU()
            (1): Linear(in_features=512, out_features=256, bias=True)
          )
          (out_layers): Sequential(
            (0): GroupNorm32(32, 256, eps=1e-05, affine=True)
            (1): SiLU()
            (2): Dropout(p=0.1, inplace=False)
            (3): Conv2d(256, 256, kernel_size=(3, 3), stride=(1, 1), padding=(1, 1))
          )
          (skip_connection): Conv2d(512, 256, kernel_size=(1, 1), stride=(1, 1))
        )
      )
      (8): TimestepEmbedSequential(
        (0): ResBlock(
          (in_layers): Sequential(
            (0): GroupNorm32(32, 512, eps=1e-05, affine=True)
            (1): SiLU()
            (2): Conv2d(512, 256, kernel_size=(3, 3), stride=(1, 1), padding=(1, 1))
          )
          (h_upd): Identity()
          (x_upd): Identity()
          (emb_layers): Sequential(
            (0): SiLU()
            (1): Linear(in_features=512, out_features=512, bias=True)
          )
          (cond_emb_layers): Sequential(
            (0): SiLU()
            (1): Linear(in_features=512, out_features=256, bias=True)
          )
          (out_layers): Sequential(
            (0): GroupNorm32(32, 256, eps=1e-05, affine=True)
            (1): SiLU()
            (2): Dropout(p=0.1, inplace=False)
            (3): Conv2d(256, 256, kernel_size=(3, 3), stride=(1, 1), padding=(1, 1))
          )
          (skip_connection): Conv2d(512, 256, kernel_size=(1, 1), stride=(1, 1))
        )
        (1): ResBlock(
          (in_layers): Sequential(
            (0): GroupNorm32(32, 256, eps=1e-05, affine=True)
            (1): SiLU()
            (2): Conv2d(256, 256, kernel_size=(3, 3), stride=(1, 1), padding=(1, 1))
          )
          (h_upd): Upsample()
          (x_upd): Upsample()
          (emb_layers): Sequential(
            (0): SiLU()
            (1): Linear(in_features=512, out_features=512, bias=True)
          )
          (cond_emb_layers): Sequential(
            (0): SiLU()
            (1): Linear(in_features=512, out_features=256, bias=True)
          )
          (out_layers): Sequential(
            (0): GroupNorm32(32, 256, eps=1e-05, affine=True)
            (1): SiLU()
            (2): Dropout(p=0.1, inplace=False)
            (3): Conv2d(256, 256, kernel_size=(3, 3), stride=(1, 1), padding=(1, 1))
          )
          (skip_connection): Identity()
        )
      )
      (9): TimestepEmbedSequential(
        (0): ResBlock(
          (in_layers): Sequential(
            (0): GroupNorm32(32, 512, eps=1e-05, affine=True)
            (1): SiLU()
            (2): Conv2d(512, 256, kernel_size=(3, 3), stride=(1, 1), padding=(1, 1))
          )
          (h_upd): Identity()
          (x_upd): Identity()
          (emb_layers): Sequential(
            (0): SiLU()
            (1): Linear(in_features=512, out_features=512, bias=True)
          )
          (cond_emb_layers): Sequential(
            (0): SiLU()
            (1): Linear(in_features=512, out_features=256, bias=True)
          )
          (out_layers): Sequential(
            (0): GroupNorm32(32, 256, eps=1e-05, affine=True)
            (1): SiLU()
            (2): Dropout(p=0.1, inplace=False)
            (3): Conv2d(256, 256, kernel_size=(3, 3), stride=(1, 1), padding=(1, 1))
          )
          (skip_connection): Conv2d(512, 256, kernel_size=(1, 1), stride=(1, 1))
        )
      )
      (10): TimestepEmbedSequential(
        (0): ResBlock(
          (in_layers): Sequential(
            (0): GroupNorm32(32, 512, eps=1e-05, affine=True)
            (1): SiLU()
            (2): Conv2d(512, 256, kernel_size=(3, 3), stride=(1, 1), padding=(1, 1))
          )
          (h_upd): Identity()
          (x_upd): Identity()
          (emb_layers): Sequential(
            (0): SiLU()
            (1): Linear(in_features=512, out_features=512, bias=True)
          )
          (cond_emb_layers): Sequential(
            (0): SiLU()
            (1): Linear(in_features=512, out_features=256, bias=True)
          )
          (out_layers): Sequential(
            (0): GroupNorm32(32, 256, eps=1e-05, affine=True)
            (1): SiLU()
            (2): Dropout(p=0.1, inplace=False)
            (3): Conv2d(256, 256, kernel_size=(3, 3), stride=(1, 1), padding=(1, 1))
          )
          (skip_connection): Conv2d(512, 256, kernel_size=(1, 1), stride=(1, 1))
        )
      )
      (11): TimestepEmbedSequential(
        (0): ResBlock(
          (in_layers): Sequential(
            (0): GroupNorm32(32, 384, eps=1e-05, affine=True)
            (1): SiLU()
            (2): Conv2d(384, 256, kernel_size=(3, 3), stride=(1, 1), padding=(1, 1))
          )
          (h_upd): Identity()
          (x_upd): Identity()
          (emb_layers): Sequential(
            (0): SiLU()
            (1): Linear(in_features=512, out_features=512, bias=True)
          )
          (cond_emb_layers): Sequential(
            (0): SiLU()
            (1): Linear(in_features=512, out_features=256, bias=True)
          )
          (out_layers): Sequential(
            (0): GroupNorm32(32, 256, eps=1e-05, affine=True)
            (1): SiLU()
            (2): Dropout(p=0.1, inplace=False)
            (3): Conv2d(256, 256, kernel_size=(3, 3), stride=(1, 1), padding=(1, 1))
          )
          (skip_connection): Conv2d(384, 256, kernel_size=(1, 1), stride=(1, 1))
        )
        (1): ResBlock(
          (in_layers): Sequential(
            (0): GroupNorm32(32, 256, eps=1e-05, affine=True)
            (1): SiLU()
            (2): Conv2d(256, 256, kernel_size=(3, 3), stride=(1, 1), padding=(1, 1))
          )
          (h_upd): Upsample()
          (x_upd): Upsample()
          (emb_layers): Sequential(
            (0): SiLU()
            (1): Linear(in_features=512, out_features=512, bias=True)
          )
          (cond_emb_layers): Sequential(
            (0): SiLU()
            (1): Linear(in_features=512, out_features=256, bias=True)
          )
          (out_layers): Sequential(
            (0): GroupNorm32(32, 256, eps=1e-05, affine=True)
            (1): SiLU()
            (2): Dropout(p=0.1, inplace=False)
            (3): Conv2d(256, 256, kernel_size=(3, 3), stride=(1, 1), padding=(1, 1))
          )
          (skip_connection): Identity()
        )
      )
      (12): TimestepEmbedSequential(
        (0): ResBlock(
          (in_layers): Sequential(
            (0): GroupNorm32(32, 384, eps=1e-05, affine=True)
            (1): SiLU()
            (2): Conv2d(384, 128, kernel_size=(3, 3), stride=(1, 1), padding=(1, 1))
          )
          (h_upd): Identity()
          (x_upd): Identity()
          (emb_layers): Sequential(
            (0): SiLU()
            (1): Linear(in_features=512, out_features=256, bias=True)
          )
          (cond_emb_layers): Sequential(
            (0): SiLU()
            (1): Linear(in_features=512, out_features=128, bias=True)
          )
          (out_layers): Sequential(
            (0): GroupNorm32(32, 128, eps=1e-05, affine=True)
            (1): SiLU()
            (2): Dropout(p=0.1, inplace=False)
            (3): Conv2d(128, 128, kernel_size=(3, 3), stride=(1, 1), padding=(1, 1))
          )
          (skip_connection): Conv2d(384, 128, kernel_size=(1, 1), stride=(1, 1))
        )
      )
      (13): TimestepEmbedSequential(
        (0): ResBlock(
          (in_layers): Sequential(
            (0): GroupNorm32(32, 256, eps=1e-05, affine=True)
            (1): SiLU()
            (2): Conv2d(256, 128, kernel_size=(3, 3), stride=(1, 1), padding=(1, 1))
          )
          (h_upd): Identity()
          (x_upd): Identity()
          (emb_layers): Sequential(
            (0): SiLU()
            (1): Linear(in_features=512, out_features=256, bias=True)
          )
          (cond_emb_layers): Sequential(
            (0): SiLU()
            (1): Linear(in_features=512, out_features=128, bias=True)
          )
          (out_layers): Sequential(
            (0): GroupNorm32(32, 128, eps=1e-05, affine=True)
            (1): SiLU()
            (2): Dropout(p=0.1, inplace=False)
            (3): Conv2d(128, 128, kernel_size=(3, 3), stride=(1, 1), padding=(1, 1))
          )
          (skip_connection): Conv2d(256, 128, kernel_size=(1, 1), stride=(1, 1))
        )
      )
      (14): TimestepEmbedSequential(
        (0): ResBlock(
          (in_layers): Sequential(
            (0): GroupNorm32(32, 256, eps=1e-05, affine=True)
            (1): SiLU()
            (2): Conv2d(256, 128, kernel_size=(3, 3), stride=(1, 1), padding=(1, 1))
          )
          (h_upd): Identity()
          (x_upd): Identity()
          (emb_layers): Sequential(
            (0): SiLU()
            (1): Linear(in_features=512, out_features=256, bias=True)
          )
          (cond_emb_layers): Sequential(
            (0): SiLU()
            (1): Linear(in_features=512, out_features=128, bias=True)
          )
          (out_layers): Sequential(
            (0): GroupNorm32(32, 128, eps=1e-05, affine=True)
            (1): SiLU()
            (2): Dropout(p=0.1, inplace=False)
            (3): Conv2d(128, 128, kernel_size=(3, 3), stride=(1, 1), padding=(1, 1))
          )
          (skip_connection): Conv2d(256, 128, kernel_size=(1, 1), stride=(1, 1))
        )
        (1): ResBlock(
          (in_layers): Sequential(
            (0): GroupNorm32(32, 128, eps=1e-05, affine=True)
            (1): SiLU()
            (2): Conv2d(128, 128, kernel_size=(3, 3), stride=(1, 1), padding=(1, 1))
          )
          (h_upd): Upsample()
          (x_upd): Upsample()
          (emb_layers): Sequential(
            (0): SiLU()
            (1): Linear(in_features=512, out_features=256, bias=True)
          )
          (cond_emb_layers): Sequential(
            (0): SiLU()
            (1): Linear(in_features=512, out_features=128, bias=True)
          )
          (out_layers): Sequential(
            (0): GroupNorm32(32, 128, eps=1e-05, affine=True)
            (1): SiLU()
            (2): Dropout(p=0.1, inplace=False)
            (3): Conv2d(128, 128, kernel_size=(3, 3), stride=(1, 1), padding=(1, 1))
          )
          (skip_connection): Identity()
        )
      )
      (15): TimestepEmbedSequential(
        (0): ResBlock(
          (in_layers): Sequential(
            (0): GroupNorm32(32, 256, eps=1e-05, affine=True)
            (1): SiLU()
            (2): Conv2d(256, 128, kernel_size=(3, 3), stride=(1, 1), padding=(1, 1))
          )
          (h_upd): Identity()
          (x_upd): Identity()
          (emb_layers): Sequential(
            (0): SiLU()
            (1): Linear(in_features=512, out_features=256, bias=True)
          )
          (cond_emb_layers): Sequential(
            (0): SiLU()
            (1): Linear(in_features=512, out_features=128, bias=True)
          )
          (out_layers): Sequential(
            (0): GroupNorm32(32, 128, eps=1e-05, affine=True)
            (1): SiLU()
            (2): Dropout(p=0.1, inplace=False)
            (3): Conv2d(128, 128, kernel_size=(3, 3), stride=(1, 1), padding=(1, 1))
          )
          (skip_connection): Conv2d(256, 128, kernel_size=(1, 1), stride=(1, 1))
        )
      )
      (16): TimestepEmbedSequential(
        (0): ResBlock(
          (in_layers): Sequential(
            (0): GroupNorm32(32, 256, eps=1e-05, affine=True)
            (1): SiLU()
            (2): Conv2d(256, 128, kernel_size=(3, 3), stride=(1, 1), padding=(1, 1))
          )
          (h_upd): Identity()
          (x_upd): Identity()
          (emb_layers): Sequential(
            (0): SiLU()
            (1): Linear(in_features=512, out_features=256, bias=True)
          )
          (cond_emb_layers): Sequential(
            (0): SiLU()
            (1): Linear(in_features=512, out_features=128, bias=True)
          )
          (out_layers): Sequential(
            (0): GroupNorm32(32, 128, eps=1e-05, affine=True)
            (1): SiLU()
            (2): Dropout(p=0.1, inplace=False)
            (3): Conv2d(128, 128, kernel_size=(3, 3), stride=(1, 1), padding=(1, 1))
          )
          (skip_connection): Conv2d(256, 128, kernel_size=(1, 1), stride=(1, 1))
        )
      )
      (17): TimestepEmbedSequential(
        (0): ResBlock(
          (in_layers): Sequential(
            (0): GroupNorm32(32, 256, eps=1e-05, affine=True)
            (1): SiLU()
            (2): Conv2d(256, 128, kernel_size=(3, 3), stride=(1, 1), padding=(1, 1))
          )
          (h_upd): Identity()
          (x_upd): Identity()
          (emb_layers): Sequential(
            (0): SiLU()
            (1): Linear(in_features=512, out_features=256, bias=True)
          )
          (cond_emb_layers): Sequential(
            (0): SiLU()
            (1): Linear(in_features=512, out_features=128, bias=True)
          )
          (out_layers): Sequential(
            (0): GroupNorm32(32, 128, eps=1e-05, affine=True)
            (1): SiLU()
            (2): Dropout(p=0.1, inplace=False)
            (3): Conv2d(128, 128, kernel_size=(3, 3), stride=(1, 1), padding=(1, 1))
          )
          (skip_connection): Conv2d(256, 128, kernel_size=(1, 1), stride=(1, 1))
        )
      )
    )
    (out): Sequential(
      (0): GroupNorm32(32, 128, eps=1e-05, affine=True)
      (1): SiLU()
      (2): Conv2d(128, 1, kernel_size=(3, 3), stride=(1, 1), padding=(1, 1))
    )
    (encoder): BeatGANsEncoderModel(
      (input_blocks): ModuleList(
        (0): TimestepEmbedSequential(
          (0): Conv2d(512, 512, kernel_size=(3, 3), stride=(1, 1), padding=(1, 1))
        )
        (1): TimestepEmbedSequential(
          (0): ResBlock(
            (in_layers): Sequential(
              (0): GroupNorm32(32, 512, eps=1e-05, affine=True)
              (1): SiLU()
              (2): Conv2d(512, 512, kernel_size=(3, 3), stride=(1, 1), padding=(1, 1))
            )
            (h_upd): Identity()
            (x_upd): Identity()
            (skip_connection): Identity()
          )
        )
        (2): TimestepEmbedSequential(
          (0): ResBlock(
            (in_layers): Sequential(
              (0): GroupNorm32(32, 512, eps=1e-05, affine=True)
              (1): SiLU()
              (2): Conv2d(512, 512, kernel_size=(3, 3), stride=(1, 1), padding=(1, 1))
            )
            (h_upd): Identity()
            (x_upd): Identity()
            (skip_connection): Identity()
          )
        )
        (3): TimestepEmbedSequential(
          (0): ResBlock(
            (in_layers): Sequential(
              (0): GroupNorm32(32, 512, eps=1e-05, affine=True)
              (1): SiLU()
              (2): Conv2d(512, 512, kernel_size=(3, 3), stride=(1, 1), padding=(1, 1))
            )
            (h_upd): Downsample(
              (op): AvgPool2d(kernel_size=2, stride=2, padding=0)
            )
            (x_upd): Downsample(
              (op): AvgPool2d(kernel_size=2, stride=2, padding=0)
            )
            (skip_connection): Identity()
          )
        )
        (4): TimestepEmbedSequential(
          (0): ResBlock(
            (in_layers): Sequential(
              (0): GroupNorm32(32, 512, eps=1e-05, affine=True)
              (1): SiLU()
              (2): Conv2d(512, 512, kernel_size=(3, 3), stride=(1, 1), padding=(1, 1))
            )
            (h_upd): Identity()
            (x_upd): Identity()
            (skip_connection): Identity()
          )
        )
        (5): TimestepEmbedSequential(
          (0): ResBlock(
            (in_layers): Sequential(
              (0): GroupNorm32(32, 512, eps=1e-05, affine=True)
              (1): SiLU()
              (2): Conv2d(512, 512, kernel_size=(3, 3), stride=(1, 1), padding=(1, 1))
            )
            (h_upd): Identity()
            (x_upd): Identity()
            (skip_connection): Identity()
          )
        )
        (6): TimestepEmbedSequential(
          (0): ResBlock(
            (in_layers): Sequential(
              (0): GroupNorm32(32, 512, eps=1e-05, affine=True)
              (1): SiLU()
              (2): Conv2d(512, 512, kernel_size=(3, 3), stride=(1, 1), padding=(1, 1))
            )
            (h_upd): Downsample(
              (op): AvgPool2d(kernel_size=2, stride=2, padding=0)
            )
            (x_upd): Downsample(
              (op): AvgPool2d(kernel_size=2, stride=2, padding=0)
            )
            (skip_connection): Identity()
          )
        )
        (7): TimestepEmbedSequential(
          (0): ResBlock(
            (in_layers): Sequential(
              (0): GroupNorm32(32, 512, eps=1e-05, affine=True)
              (1): SiLU()
              (2): Conv2d(512, 1024, kernel_size=(3, 3), stride=(1, 1), padding=(1, 1))
            )
            (h_upd): Identity()
            (x_upd): Identity()
            (skip_connection): Conv2d(512, 1024, kernel_size=(1, 1), stride=(1, 1))
          )
        )
        (8): TimestepEmbedSequential(
          (0): ResBlock(
            (in_layers): Sequential(
              (0): GroupNorm32(32, 1024, eps=1e-05, affine=True)
              (1): SiLU()
              (2): Conv2d(1024, 1024, kernel_size=(3, 3), stride=(1, 1), padding=(1, 1))
            )
            (h_upd): Identity()
            (x_upd): Identity()
            (skip_connection): Identity()
          )
        )
        (9): TimestepEmbedSequential(
          (0): ResBlock(
            (in_layers): Sequential(
              (0): GroupNorm32(32, 1024, eps=1e-05, affine=True)
              (1): SiLU()
              (2): Conv2d(1024, 1024, kernel_size=(3, 3), stride=(1, 1), padding=(1, 1))
            )
            (h_upd): Downsample(
              (op): AvgPool2d(kernel_size=2, stride=2, padding=0)
            )
            (x_upd): Downsample(
              (op): AvgPool2d(kernel_size=2, stride=2, padding=0)
            )
            (skip_connection): Identity()
          )
        )
        (10): TimestepEmbedSequential(
          (0): ResBlock(
            (in_layers): Sequential(
              (0): GroupNorm32(32, 1024, eps=1e-05, affine=True)
              (1): SiLU()
              (2): Conv2d(1024, 1024, kernel_size=(3, 3), stride=(1, 1), padding=(1, 1))
            )
            (h_upd): Identity()
            (x_upd): Identity()
            (skip_connection): Identity()
          )
        )
        (11): TimestepEmbedSequential(
          (0): ResBlock(
            (in_layers): Sequential(
              (0): GroupNorm32(32, 1024, eps=1e-05, affine=True)
              (1): SiLU()
              (2): Conv2d(1024, 1024, kernel_size=(3, 3), stride=(1, 1), padding=(1, 1))
            )
            (h_upd): Identity()
            (x_upd): Identity()
            (skip_connection): Identity()
          )
        )
        (12): TimestepEmbedSequential(
          (0): ResBlock(
            (in_layers): Sequential(
              (0): GroupNorm32(32, 1024, eps=1e-05, affine=True)
              (1): SiLU()
              (2): Conv2d(1024, 1024, kernel_size=(3, 3), stride=(1, 1), padding=(1, 1))
            )
            (h_upd): Downsample(
              (op): AvgPool2d(kernel_size=2, stride=2, padding=0)
            )
            (x_upd): Downsample(
              (op): AvgPool2d(kernel_size=2, stride=2, padding=0)
            )
            (skip_connection): Identity()
          )
        )
        (13): TimestepEmbedSequential(
          (0): ResBlock(
            (in_layers): Sequential(
              (0): GroupNorm32(32, 1024, eps=1e-05, affine=True)
              (1): SiLU()
              (2): Conv2d(1024, 2048, kernel_size=(3, 3), stride=(1, 1), padding=(1, 1))
            )
            (h_upd): Identity()
            (x_upd): Identity()
            (skip_connection): Conv2d(1024, 2048, kernel_size=(1, 1), stride=(1, 1))
          )
          (1): AttentionBlock(
            (norm): GroupNorm32(32, 2048, eps=1e-05, affine=True)
            (qkv): Conv1d(2048, 6144, kernel_size=(1,), stride=(1,))
            (attention): QKVAttentionLegacy()
            (proj_out): Conv1d(2048, 2048, kernel_size=(1,), stride=(1,))
          )
        )
        (14): TimestepEmbedSequential(
          (0): ResBlock(
            (in_layers): Sequential(
              (0): GroupNorm32(32, 2048, eps=1e-05, affine=True)
              (1): SiLU()
              (2): Conv2d(2048, 2048, kernel_size=(3, 3), stride=(1, 1), padding=(1, 1))
            )
            (h_upd): Identity()
            (x_upd): Identity()
            (skip_connection): Identity()
          )
          (1): AttentionBlock(
            (norm): GroupNorm32(32, 2048, eps=1e-05, affine=True)
            (qkv): Conv1d(2048, 6144, kernel_size=(1,), stride=(1,))
            (attention): QKVAttentionLegacy()
            (proj_out): Conv1d(2048, 2048, kernel_size=(1,), stride=(1,))
          )
        )
        (15): TimestepEmbedSequential(
          (0): ResBlock(
            (in_layers): Sequential(
              (0): GroupNorm32(32, 2048, eps=1e-05, affine=True)
              (1): SiLU()
              (2): Conv2d(2048, 2048, kernel_size=(3, 3), stride=(1, 1), padding=(1, 1))
            )
            (h_upd): Downsample(
              (op): AvgPool2d(kernel_size=2, stride=2, padding=0)
            )
            (x_upd): Downsample(
              (op): AvgPool2d(kernel_size=2, stride=2, padding=0)
            )
            (skip_connection): Identity()
          )
        )
        (16): TimestepEmbedSequential(
          (0): ResBlock(
            (in_layers): Sequential(
              (0): GroupNorm32(32, 2048, eps=1e-05, affine=True)
              (1): SiLU()
              (2): Conv2d(2048, 2048, kernel_size=(3, 3), stride=(1, 1), padding=(1, 1))
            )
            (h_upd): Identity()
            (x_upd): Identity()
            (skip_connection): Identity()
          )
        )
        (17): TimestepEmbedSequential(
          (0): ResBlock(
            (in_layers): Sequential(
              (0): GroupNorm32(32, 2048, eps=1e-05, affine=True)
              (1): SiLU()
              (2): Conv2d(2048, 2048, kernel_size=(3, 3), stride=(1, 1), padding=(1, 1))
            )
            (h_upd): Identity()
            (x_upd): Identity()
            (skip_connection): Identity()
          )
        )
        (18): TimestepEmbedSequential(
          (0): ResBlock(
            (in_layers): Sequential(
              (0): GroupNorm32(32, 2048, eps=1e-05, affine=True)
              (1): SiLU()
              (2): Conv2d(2048, 2048, kernel_size=(3, 3), stride=(1, 1), padding=(1, 1))
            )
            (h_upd): Downsample(
              (op): AvgPool2d(kernel_size=2, stride=2, padding=0)
            )
            (x_upd): Downsample(
              (op): AvgPool2d(kernel_size=2, stride=2, padding=0)
            )
            (skip_connection): Identity()
          )
        )
        (19): TimestepEmbedSequential(
          (0): ResBlock(
            (in_layers): Sequential(
              (0): GroupNorm32(32, 2048, eps=1e-05, affine=True)
              (1): SiLU()
              (2): Conv2d(2048, 2048, kernel_size=(3, 3), stride=(1, 1), padding=(1, 1))
            )
            (h_upd): Identity()
            (x_upd): Identity()
            (skip_connection): Identity()
          )
        )
        (20): TimestepEmbedSequential(
          (0): ResBlock(
            (in_layers): Sequential(
              (0): GroupNorm32(32, 2048, eps=1e-05, affine=True)
              (1): SiLU()
              (2): Conv2d(2048, 2048, kernel_size=(3, 3), stride=(1, 1), padding=(1, 1))
            )
            (h_upd): Identity()
            (x_upd): Identity()
            (skip_connection): Identity()
          )
        )
      )
      (middle_block): TimestepEmbedSequential(
        (0): ResBlock(
          (in_layers): Sequential(
            (0): GroupNorm32(32, 2048, eps=1e-05, affine=True)
            (1): SiLU()
            (2): Conv2d(2048, 2048, kernel_size=(3, 3), stride=(1, 1), padding=(1, 1))
          )
          (h_upd): Identity()
          (x_upd): Identity()
          (skip_connection): Identity()
        )
        (1): AttentionBlock(
          (norm): GroupNorm32(32, 2048, eps=1e-05, affine=True)
          (qkv): Conv1d(2048, 6144, kernel_size=(1,), stride=(1,))
          (attention): QKVAttentionLegacy()
          (proj_out): Conv1d(2048, 2048, kernel_size=(1,), stride=(1,))
        )
        (2): ResBlock(
          (in_layers): Sequential(
            (0): GroupNorm32(32, 2048, eps=1e-05, affine=True)
            (1): SiLU()
            (2): Conv2d(2048, 2048, kernel_size=(3, 3), stride=(1, 1), padding=(1, 1))
          )
          (h_upd): Identity()
          (x_upd): Identity()
          (skip_connection): Identity()
        )
      )
      (out): Sequential(
        (0): GroupNorm32(32, 2048, eps=1e-05, affine=True)
        (1): SiLU()
        (2): AdaptiveAvgPool2d(output_size=(1, 1))
        (3): Conv2d(2048, 512, kernel_size=(1, 1), stride=(1, 1))
        (4): Flatten(start_dim=1, end_dim=-1)
      )
    )
  )
)
> /research/cbim/vast/xh172/diffusion/diffae/experiment.py(889)train()
-> if not os.path.exists(conf.logdir):
(Pdb) --KeyboardInterrupt--
(Pdb) 